…
[667.349191, "o", "I20260401 08:44:56.499063  9475 db_lmdb.cpp:35] Opened lmdb examples/cifar10/cifar10_train_lmdb\r\n"]
[667.35025, "o", "I20260401 08:44:56.499711  9475 net.cpp:84] Creating Layer cifar\r\nI20260401 08:44:56.500129  9475 net.cpp:380] cifar -> data\r\nI20260401 08:44:56.500228  9475 net.cpp:380] cifar -> label\r\nI20260401 08:44:56.500272  9475 data_transformer.cpp:25] Loading mean file from: examples/cifar10/mean.binaryproto\r\n"]
[667.351327, "o", "I20260401 08:44:56.501042  9475 data_layer.cpp:45] output data size: 100,3,32,32\r\n"]
[667.35235, "o", "I20260401 08:44:56.502175  9475 net.cpp:122] Setting up cifar\r\nI20260401 08:44:56.502322  9475 net.cpp:129] Top shape: 100 3 32 32 (307200)\r\nI20260401 08:44:56.502336  9475 net.cpp:129] Top shape: 100 (100)\r\nI20260401 08:44:56.502342  9475 net.cpp:137] Memory required for data: 1229200\r\nI20260401 08:44:56.502364  9475 layer_factory.hpp:77] Creating layer conv1\r\nI20260401 08:44:56.502403  9475 net.cpp:84] Creating Layer conv1\r\nI20260401 08:44:56.502413  9475 net.cpp:406] conv1 <- data\r\nI20260401 08:44:56.502421  9475 net.cpp:380] conv1 -> conv1\r\n"]
[667.353426, "o", "I20260401 08:44:56.502877  9475 net.cpp:122] Setting up conv1\r\nI20260401 08:44:56.503125  9475 net.cpp:129] Top shape: 100 32 32 32 (3276800)\r\nI20260401 08:44:56.503134  9475 net.cpp:137] Memory required for data: 14336400\r\nI20260401 08:44:56.503165  9475 layer_factory.hpp:77] Creating layer pool1\r\nI20260401 08:44:56.503172  9475 net.cpp:84] Creating Layer pool1\r\nI20260401 08:44:56.503178  9475 net.cpp:406] pool1 <- conv1\r\nI20260401 08:44:56.503235  9475 net.cpp:380] pool1 -> pool1\r\nI20260401 08:44:56.503275  9475 net.cpp:122] Setting up pool1\r\nI20260401 08:44:56.503283  9475 net.cpp:129] Top shape: 100 32 16 16 (819200)\r\nI20260401 08:44:56.503288  9475 net.cpp:137] Memory required for data: 17613200\r\nI20260401 08:44:56.503294  9475 layer_factory.hpp:77] Creating layer relu1\r\nI20260401 08:44:56.503312  9475 net.cpp:84] Creating Layer relu1\r\nI20260401 08:44:56.503319  9475 net.cpp:406] relu1 <- pool1\r\nI20260401 08:44:56.503326  9475 net.cpp:367] relu1 -> pool1 (in-place)\r\nI20260401 08:44:56.503353  9475 net.cpp:122] Setting up relu1\r\nI20260401 08:44:56.503358  9475 net.cpp:129] Top shape: 100 32 16 16 (819200)\r\nI20260401 08:44:56.503364  9475 net.cpp:137] Memory required for data: 20890000\r\nI20260401 08:44:56.503369  9475 layer_factory.hpp:77] Creating layer conv2\r\nI20260401 08:44:56.503377  9475 net.cpp:84] Creating Layer conv2\r\nI20260401 08:44:56.503392  9475 net.cpp:406] conv2 <- pool1\r\nI20260401 08:44:56.503398  9475 net.cpp:380] conv2 -> conv2\r\n"]
[667.354439, "o", "I20260401 08:44:56.504006  9475 net.cpp:122] Setting up conv2\r\nI20260401 08:44:56.504297  9475 net.cpp:129] Top shape: 100 32 16 16 (819200)\r\nI20260401 08:44:56.504307  9475 net.cpp:137] Memory required for data: 24166800\r\nI20260401 08:44:56.504313  9475 layer_factory.hpp:77] Creating layer relu2\r\nI20260401 08:44:56.504320  9475 net.cpp:84] Creating Layer relu2\r\nI20260401 08:44:56.504326  9475 net.cpp:406] relu2 <- conv2\r\nI20260401 08:44:56.504333  9475 net.cpp:367] relu2 -> conv2 (in-place)\r\nI20260401 08:44:56.504339  9475 net.cpp:122] Setting up relu2\r\nI20260401 08:44:56.504344  9475 net.cpp:129] Top shape: 100 32 16 16 (819200)\r\nI20260401 08:44:56.504351  9475 net.cpp:137] Memory required for data: 27443600\r\nI20260401 08:44:56.504356  9475 layer_factory.hpp:77] Creating layer pool2\r\nI20260401 08:44:56.504407  9475 net.cpp:84] Creating Layer pool2\r\nI20260401 08:44:56.504412  9475 net.cpp:406] pool2 <- conv2\r\nI20260401 08:44:56.504419  9475 net.cpp:380] pool2 -> pool2\r\nI20260401 08:44:56.504427  9475 net.cpp:122] Setting up pool2\r\nI20260401 08:44:56.504432  9475 net.cpp:129] Top shape: 100 32 8 8 (204800)\r\nI20260401 08:44:56.504437  9475 net.cpp:137] Memory required for data: 28262800\r\nI20260401 08:44:56.504443  9475 layer_factory.hpp:77] Creating layer conv3\r\nI20260401 08:44:56.504469  9475 net.cpp:84] Creating Layer conv3\r\nI20260401 08:44:56.504484  9475 net.cpp:406] conv3 <- pool2\r\nI20260401 08:44:56.504490  9475 net.cpp:380] conv3 -> conv3\r\n"]
[667.355942, "o", "I20260401 08:44:56.505537  9475 net.cpp:122] Setting up conv3\r\nI20260401 08:44:56.505705  9475 net.cpp:129] Top shape: 100 64 8 8 (409600)\r\nI20260401 08:44:56.505714  9475 net.cpp:137] Memory required for data: 29901200\r\nI20260401 08:44:56.505722  9475 layer_factory.hpp:77] Creating layer relu3\r\nI20260401 08:44:56.505731  9475 net.cpp:84] Creating Layer relu3\r\nI20260401 08:44:56.505748  9475 net.cpp:406] relu3 <- conv3\r\nI20260401 08:44:56.505753  9475 net.cpp:367] relu3 -> conv3 (in-place)\r\nI20260401 08:44:56.505760  9475 net.cpp:122] Setting up relu3\r\nI20260401 08:44:56.505770  9475 net.cpp:129] Top shape: 100 64 8 8 (409600)\r\nI20260401 08:44:56.505810  9475 net.cpp:137] Memory required for data: 31539600\r\nI20260401 08:44:56.505816  9475 layer_factory.hpp:77] Creating layer pool3\r\nI20260401 08:44:56.505837  9475 net.cpp:84] Creating Layer pool3\r\nI20260401 08:44:56.505843  9475 net.cpp:406] pool3 <- conv3\r\nI20260401 08:44:56.505853  9475 net.cpp:380] pool3 -> pool3\r\nI20260401 08:44:56.505861  9475 net.cpp:122] Setting up pool3\r\nI20260401 08:44:56.505867  9475 net.cpp:129] Top shape: 100 64 4 4 (102400)\r\nI20260401 08:44:56.505872  9475 net.cpp:137] Memory required for data: 31949200\r\nI20260401 08:44:56.505878  9475 layer_factory.hpp:77] Creating layer ip1\r\nI20260401 08:44:56.505896  9475 net.cpp:84] Creating Layer ip1\r\nI20260401 08:44:56.505903  9475 net.cpp:406] ip1 <- pool3\r\nI20260401 08:44:56.505909  9475 net.cpp:380] ip1 -> ip1\r\n"]
[667.36449, "o", "I20260401 08:44:56.514233  9475 net.cpp:122] Setting up ip1\r\nI20260401 08:44:56.514461  9475 net.cpp:129] Top shape: 100 64 (6400)\r\nI20260401 08:44:56.514470  9475 net.cpp:137] Memory required for data: 31974800\r\nI20260401 08:44:56.514483  9475 layer_factory.hpp:77] Creating layer ip2\r\nI20260401 08:44:56.514492  9475 net.cpp:84] Creating Layer ip2\r\nI20260401 08:44:56.514499  9475 net.cpp:406] ip2 <- ip1\r\nI20260401 08:44:56.514505  9475 net.cpp:380] ip2 -> ip2\r\nI20260401 08:44:56.514533  9475 net.cpp:122] Setting up ip2\r\nI20260401 08:44:56.514539  9475 net.cpp:129] Top shape: 100 10 (1000)\r\nI20260401 08:44:56.514545  9475 net.cpp:137] Memory required for data: 31978800\r\nI20260401 08:44:56.514552  9475 layer_factory.hpp:77] Creating layer loss\r\nI20260401 08:44:56.514585  9475 net.cpp:84] Creating Layer loss\r\n"]
[667.365074, "o", "I20260401 08:44:56.514593  9475 net.cpp:406] loss <- ip2\r\nI20260401 08:44:56.514600  9475 net.cpp:406] loss <- label\r\nI20260401 08:44:56.514606  9475 net.cpp:380] loss -> loss\r\nI20260401 08:44:56.514650  9475 layer_factory.hpp:77] Creating layer loss\r\n"]
…
[667.369353, "o", "I20260401 08:44:56.519219  9475 db_lmdb.cpp:35] Opened lmdb examples/cifar10/cifar10_test_lmdb\r\nI20260401 08:44:56.519356  9475 net.cpp:84] Creating Layer cifar\r\nI20260401 08:44:56.519367  9475 net.cpp:380] cifar -> data\r\nI20260401 08:44:56.519387  9475 net.cpp:380] cifar -> label\r\nI20260401 08:44:56.519395  9475 data_transformer.cpp:25] Loading mean file from: examples/cifar10/mean.binaryproto\r\n"]
[667.370209, "o", "I20260401 08:44:56.519946  9475 data_layer.cpp:45] output data size: 100,3,32,32\r\n"]
[667.370998, "o", "I20260401 08:44:56.520737  9475 net.cpp:122] Setting up cifar\r\nI20260401 08:44:56.520884  9475 net.cpp:129] Top shape: 100 3 32 32 (307200)\r\nI20260401 08:44:56.520895  9475 net.cpp:129] Top shape: 100 (100)\r\nI20260401 08:44:56.520900  9475 net.cpp:137] Memory required for data: 1229200\r\nI20260401 08:44:56.520907  9475 layer_factory.hpp:77] Creating layer label_cifar_1_split\r\nI20260401 08:44:56.520964  9475 net.cpp:84] Creating Layer label_cifar_1_split\r\nI20260401 08:44:56.520974  9475 net.cpp:406] label_cifar_1_split <- label\r\nI20260401 08:44:56.520982  9475 net.cpp:380] label_cifar_1_split -> label_cifar_1_split_0\r\nI20260401 08:44:56.520990  9475 net.cpp:380] label_cifar_1_split -> label_cifar_1_split_1\r\nI20260401 08:44:56.521008  9475 net.cpp:122] Setting up label_cifar_1_split\r\nI20260401 08:44:56.521013  9475 net.cpp:129] Top shape: 100 (100)\r\nI20260401 08:44:56.521019  9475 net.cpp:129] Top shape: 100 (100)\r\nI20260401 08:44:56.521025  9475 net.cpp:137] Memory required for data: 1230000\r\nI20260401 08:44:56.521031  9475 layer_factory.hpp:77] Creating layer conv1\r\nI20260401 08:44:56.521041  9475 net.cpp:84] Creating Layer conv1\r\nI20260401 08:44:56.521097  9475 net.cpp:406] conv1 <- data\r\nI20260401 08:44:56.521106  9475 net.cpp:380] conv1 -> conv1\r\n"]
[667.372038, "o", "I20260401 08:44:56.521173  9475 net.cpp:122] Setting up conv1\r\nI20260401 08:44:56.521202  9475 net.cpp:129] Top shape: 100 32 32 32 (3276800)\r\nI20260401 08:44:56.521209  9475 net.cpp:137] Memory required for data: 14337200\r\nI20260401 08:44:56.521230  9475 layer_factory.hpp:77] Creating layer pool1\r\nI20260401 08:44:56.521236  9475 net.cpp:84] Creating Layer pool1\r\nI20260401 08:44:56.521245  9475 net.cpp:406] pool1 <- conv1\r\nI20260401 08:44:56.521250  9475 net.cpp:380] pool1 -> pool1\r\nI20260401 08:44:56.521258  9475 net.cpp:122] Setting up pool1\r\nI20260401 08:44:56.521265  9475 net.cpp:129] Top shape: 100 32 16 16 (819200)\r\nI20260401 08:44:56.521270  9475 net.cpp:137] Memory required for data: 17614000\r\nI20260401 08:44:56.521275  9475 layer_factory.hpp:77] Creating layer relu1\r\nI20260401 08:44:56.521282  9475 net.cpp:84] Creating Layer relu1\r\nI20260401 08:44:56.521287  9475 net.cpp:406] relu1 <- pool1\r\nI20260401 08:44:56.521538  9475 net.cpp:367] relu1 -> pool1 (in-place)\r\nI20260401 08:44:56.521749  9475 net.cpp:122] Setting up relu1\r\nI20260401 08:44:56.521756  9475 net.cpp:129] Top shape: 100 32 16 16 (819200)\r\nI20260401 08:44:56.521762  9475 net.cpp:137] Memory required for data: 20890800\r\nI20260401 08:44:56.521768  9475 layer_factory.hpp:77] Creating layer conv2\r\nI20260401 08:44:56.521801  9475 net.cpp:84] Creating Layer conv2\r\nI20260401 08:44:56.521808  9475 net.cpp:406] conv2 <- pool1\r\nI20260401 08:44:56.521816  9475 net.cpp:380] conv2 -> conv2\r\n"]
[667.372532, "o", "I20260401 08:44:56.522359  9475 net.cpp:122] Setting up conv2\r\nI20260401 08:44:56.522555  9475 net.cpp:129] Top shape: 100 32 16 16 (819200)\r\nI20260401 08:44:56.522564  9475 net.cpp:137] Memory required for data: 24167600\r\nI20260401 08:44:56.522572  9475 layer_factory.hpp:77] Creating layer relu2\r\nI20260401 08:44:56.522594  9475 net.cpp:84] Creating Layer relu2\r\nI20260401 08:44:56.522603  9475 net.cpp:406] relu2 <- conv2\r\nI20260401 08:44:56.522610  9475 net.cpp:367] relu2 -> conv2 (in-place)\r\nI20260401 08:44:56.522617  9475 net.cpp:122] Setting up relu2\r\nI20260401 08:44:56.522624  9475 net.cpp:129] Top shape: 100 32 16 16 (819200)\r\nI20260401 08:44:56.522630  9475 net.cpp:137] Memory required for data: 27444400\r\nI20260401 08:44:56.522635  9475 layer_factory.hpp:77] Creating layer pool2\r\nI20260401 08:44:56.522641  9475 net.cpp:84] Creating Layer pool2\r\nI20260401 08:44:56.522648  9475 net.cpp:406] pool2 <- conv2\r\nI20260401 08:44:56.522655  9475 net.cpp:380] pool2 -> pool2\r\nI20260401 08:44:56.522661  9475 net.cpp:122] Setting up pool2\r\n"]
[667.37258, "o", "I20260401 08:44:56.522668  9475 net.cpp:129] Top shape: 100 32 8 8 (204800)\r\nI20260401 08:44:56.522686  9475 net.cpp:137] Memory required for data: 28263600\r\nI20260401 08:44:56.522691  9475 layer_factory.hpp:77] Creating layer conv3\r\nI20260401 08:44:56.522709  9475 net.cpp:84] Creating Layer conv3\r\nI20260401 08:44:56.522716  9475 net.cpp:406] conv3 <- pool2\r\nI20260401 08:44:56.522724  9475 net.cpp:380] conv3 -> conv3\r\n"]
[667.373951, "o", "I20260401 08:44:56.523747  9475 net.cpp:122] Setting up conv3\r\nI20260401 08:44:56.523950  9475 net.cpp:129] Top shape: 100 64 8 8 (409600)\r\nI20260401 08:44:56.523959  9475 net.cpp:137] Memory required for data: 29902000\r\n"]
[667.374388, "o", "I20260401 08:44:56.523967  9475 layer_factory.hpp:77] Creating layer relu3\r\nI20260401 08:44:56.524163  9475 net.cpp:84] Creating Layer relu3\r\nI20260401 08:44:56.524174  9475 net.cpp:406] relu3 <- conv3\r\n"]
[667.375136, "o", "I20260401 08:44:56.524181  9475 net.cpp:367] relu3 -> conv3 (in-place)\r\nI20260401 08:44:56.524612  9475 net.cpp:122] Setting up relu3\r\nI20260401 08:44:56.524621  9475 net.cpp:129] Top shape: 100 64 8 8 (409600)\r\nI20260401 08:44:56.524627  9475 net.cpp:137] Memory required for data: 31540400\r\nI20260401 08:44:56.524633  9475 layer_factory.hpp:77] Creating layer pool3\r\n"]
[667.375889, "o", "I20260401 08:44:56.524874  9475 net.cpp:84] Creating Layer pool3\r\nI20260401 08:44:56.525395  9475 net.cpp:406] pool3 <- conv3\r\nI20260401 08:44:56.525655  9475 net.cpp:380] pool3 -> pool3\r\nI20260401 08:44:56.525844  9475 net.cpp:122] Setting up pool3\r\nI20260401 08:44:56.525851  9475 net.cpp:129] Top shape: 100 64 4 4 (102400)\r\nI20260401 08:44:56.525897  9475 net.cpp:137] Memory required for data: 31950000\r\nI20260401 08:44:56.525926  9475 layer_factory.hpp:77] Creating layer ip1\r\nI20260401 08:44:56.525934  9475 net.cpp:84] Creating Layer ip1\r\nI20260401 08:44:56.525964  9475 net.cpp:406] ip1 <- pool3\r\nI20260401 08:44:56.525971  9475 net.cpp:380] ip1 -> ip1\r\n"]
[667.377298, "o", "I20260401 08:44:56.527122  9475 net.cpp:122] Setting up ip1\r\nI20260401 08:44:56.527323  9475 net.cpp:129] Top shape: 100 64 (6400)\r\nI20260401 08:44:56.527331  9475 net.cpp:137] Memory required for data: 31975600\r\nI20260401 08:44:56.527346  9475 layer_factory.hpp:77] Creating layer ip2\r\nI20260401 08:44:56.527354  9475 net.cpp:84] Creating Layer ip2\r\nI20260401 08:44:56.527360  9475 net.cpp:406] ip2 <- ip1\r\nI20260401 08:44:56.527369  9475 net.cpp:380] ip2 -> ip2\r\nI20260401 08:44:56.527395  9475 net.cpp:122] Setting up ip2\r\nI20260401 08:44:56.527400  9475 net.cpp:129] Top shape: 100 10 (1000)\r\nI20260401 08:44:56.527406  9475 net.cpp:137] Memory required for data: 31979600\r\nI20260401 08:44:56.527415  9475 layer_factory.hpp:77] Creating layer ip2_ip2_0_split\r\nI20260401 08:44:56.527436  9475 net.cpp:84] Creating Layer ip2_ip2_0_split\r\nI20260401 08:44:56.527442  9475 net.cpp:406] ip2_ip2_0_split <- ip2\r\nI20260401 08:44:56.527449  9475 net.cpp:380] ip2_ip2_0_split -> ip2_ip2_0_split_0\r\n"]
[667.377356, "o", "I20260401 08:44:56.527457  9475 net.cpp:380] ip2_ip2_0_split -> ip2_ip2_0_split_1\r\nI20260401 08:44:56.527467  9475 net.cpp:122] Setting up ip2_ip2_0_split\r\nI20260401 08:44:56.527473  9475 net.cpp:129] Top shape: 100 10 (1000)\r\nI20260401 08:44:56.527480  9475 net.cpp:129] Top shape: 100 10 (1000)\r\nI20260401 08:44:56.527487  9475 net.cpp:137] Memory required for data: 31987600\r\nI20260401 08:44:56.527493  9475 layer_factory.hpp:77] Creating layer accuracy\r\nI20260401 08:44:56.527510  9475 net.cpp:84] Creating Layer accuracy\r\nI20260401 08:44:56.527518  9475 net.cpp:406] accuracy <- ip2_ip2_0_split_0\r\nI20260401 08:44:56.527524  9475 net.cpp:406] accuracy <- label_cifar_1_split_0\r\n"]
…
