…
I20260402 07:29:42.720485 16109 net.cpp:294] The NetState phase (0) differed from the phase (1) specified by a rule in layer accuracy
I20260402 07:29:42.720495 16109 net.cpp:51] Initializing net from parameters:
name: "CIFAR10_quick"
state {
  phase: TRAIN
  level: 0
  stage: ""
}
layer {
  name: "cifar"
  type: "Data"
  top: "data"
  top: "label"
  include {
    phase: TRAIN
  }
  transform_param {
    mean_file: "examples/cifar10/mean.binaryproto"
  }
  data_param {
    source: "examples/cifar10/cifar10_train_lmdb"
    batch_size: 100
    backend: LMDB
  }
}
layer {
  name: "conv1"
  type: "Convolution"
  bottom: "data"
  top: "conv1"
  param {
    lr_mult: 1
  }
  param {
    lr_mult: 2
  }
  convolution_param {
    num_output: 32
    pad: 2
    kernel_size: 5
    stride: 1
    weight_filler {
      type: "gaussian"
      std: 0.0001
    }
    bias_filler {
      type: "constant"
    }
  }
}
layer {
  name: "pool1"
  type: "Pooling"
  bottom: "conv1"
  top: "pool1"
  pooling_param {
    pool: MAX
    kernel_size: 3
    stride: 2
  }
}
layer {
  name: "relu1"
  type: "ReLU"
  bottom: "pool1"
  top: "pool1"
}
layer {
  name: "conv2"
  type: "Convolution"
  bottom: "pool1"
  top: "conv2"
  param {
    lr_mult: 1
  }
  param {
    lr_mult: 2
  }
  convolution_param {
    num_output: 32
    pad: 2
    kernel_size: 5
    stride: 1
    weight_filler {
      type: "gaussian"
      std: 0.01
    }
    bias_filler {
      type: "constant"
    }
  }
}
layer {
  name: "relu2"
  type: "ReLU"
  bottom: "conv2"
  top: "conv2"
}
layer {
  name: "pool2"
  type: "Pooling"
  bottom: "conv2"
  top: "pool2"
  pooling_param {
    pool: AVE
    kernel_size: 3
    stride: 2
  }
}
layer {
  name: "conv3"
  type: "Convolution"
  bottom: "pool2"
  top: "conv3"
  param {
    lr_mult: 1
  }
  param {
    lr_mult: 2
  }
  convolution_param {
    num_output: 64
    pad: 2
    kernel_size: 5
    stride: 1
    weight_filler {
      type: "gaussian"
      std: 0.01
    }
    bias_filler {
      type: "constant"
    }
  }
}
layer {
  name: "relu3"
  type: "ReLU"
  bottom: "conv3"
  top: "conv3"
}
layer {
  name: "pool3"
  type: "Pooling"
  bottom: "conv3"
  top: "pool3"
  pooling_param {
    pool: AVE
    kernel_size: 3
    stride: 2
  }
}
layer {
  name: "ip1"
  type: "InnerProduct"
  bottom: "pool3"
  top: "ip1"
  param {
    lr_mult: 1
  }
  param {
    lr_mult: 2
  }
  inner_product_param {
    num_output: 64
    weight_filler {
      type: "gaussian"
      std: 0.1
    }
    bias_filler {
      type: "constant"
    }
  }
}
layer {
  name: "ip2"
  type: "InnerProduct"
  bottom: "ip1"
  top: "ip2"
  param {
    lr_mult: 1
  }
  param {
    lr_mult: 2
  }
  inner_product_param {
    num_output: 10
    weight_filler {
      type: "gaussian"
      std: 0.1
    }
    bias_filler {
      type: "constant"
    }
  }
}
layer {
  name: "loss"
  type: "SoftmaxWithLoss"
  bottom: "ip2"
  bottom: "label"
  top: "loss"
}
I20260402 07:29:42.720572 16109 layer_factory.hpp:77] Creating layer cifar
I20260402 07:29:42.720695 16109 db_lmdb.cpp:35] Opened lmdb examples/cifar10/cifar10_train_lmdb
I20260402 07:29:42.720722 16109 net.cpp:84] Creating Layer cifar
I20260402 07:29:42.720733 16109 net.cpp:380] cifar -> data
I20260402 07:29:42.720760 16109 net.cpp:380] cifar -> label
I20260402 07:29:42.720778 16109 data_transformer.cpp:25] Loading mean file from: examples/cifar10/mean.binaryproto
I20260402 07:29:42.720854 16109 data_layer.cpp:45] output data size: 100,3,32,32
I20260402 07:29:42.721000 16109 net.cpp:122] Setting up cifar
I20260402 07:29:42.721011 16109 net.cpp:129] Top shape: 100 3 32 32 (307200)
I20260402 07:29:42.721022 16109 net.cpp:129] Top shape: 100 (100)
I20260402 07:29:42.721030 16109 net.cpp:137] Memory required for data: 1229200
I20260402 07:29:42.721038 16109 layer_factory.hpp:77] Creating layer conv1
I20260402 07:29:42.721052 16109 net.cpp:84] Creating Layer conv1
I20260402 07:29:42.721061 16109 net.cpp:406] conv1 <- data
I20260402 07:29:42.721073 16109 net.cpp:380] conv1 -> conv1
I20260402 07:29:42.721127 16109 net.cpp:122] Setting up conv1
I20260402 07:29:42.721134 16109 net.cpp:129] Top shape: 100 32 32 32 (3276800)
I20260402 07:29:42.721143 16109 net.cpp:137] Memory required for data: 14336400
I20260402 07:29:42.721158 16109 layer_factory.hpp:77] Creating layer pool1
I20260402 07:29:42.721168 16109 net.cpp:84] Creating Layer pool1
I20260402 07:29:42.721175 16109 net.cpp:406] pool1 <- conv1
I20260402 07:29:42.721184 16109 net.cpp:380] pool1 -> pool1
I20260402 07:29:42.721201 16109 net.cpp:122] Setting up pool1
I20260402 07:29:42.721210 16109 net.cpp:129] Top shape: 100 32 16 16 (819200)
I20260402 07:29:42.721220 16109 net.cpp:137] Memory required for data: 17613200
I20260402 07:29:42.721228 16109 layer_factory.hpp:77] Creating layer relu1
I20260402 07:29:42.721238 16109 net.cpp:84] Creating Layer relu1
I20260402 07:29:42.721251 16109 net.cpp:406] relu1 <- pool1
I20260402 07:29:42.721261 16109 net.cpp:367] relu1 -> pool1 (in-place)
I20260402 07:29:42.721271 16109 net.cpp:122] Setting up relu1
I20260402 07:29:42.721280 16109 net.cpp:129] Top shape: 100 32 16 16 (819200)
I20260402 07:29:42.721292 16109 net.cpp:137] Memory required for data: 20890000
I20260402 07:29:42.721298 16109 layer_factory.hpp:77] Creating layer conv2
I20260402 07:29:42.721308 16109 net.cpp:84] Creating Layer conv2
I20260402 07:29:42.721316 16109 net.cpp:406] conv2 <- pool1
I20260402 07:29:42.721326 16109 net.cpp:380] conv2 -> conv2
I20260402 07:29:42.721541 16109 net.cpp:122] Setting up conv2
I20260402 07:29:42.721554 16109 net.cpp:129] Top shape: 100 32 16 16 (819200)
I20260402 07:29:42.721563 16109 net.cpp:137] Memory required for data: 24166800
I20260402 07:29:42.721573 16109 layer_factory.hpp:77] Creating layer relu2
I20260402 07:29:42.721585 16109 net.cpp:84] Creating Layer relu2
I20260402 07:29:42.721601 16109 net.cpp:406] relu2 <- conv2
I20260402 07:29:42.721611 16109 net.cpp:367] relu2 -> conv2 (in-place)
I20260402 07:29:42.721621 16109 net.cpp:122] Setting up relu2
I20260402 07:29:42.721632 16109 net.cpp:129] Top shape: 100 32 16 16 (819200)
I20260402 07:29:42.721642 16109 net.cpp:137] Memory required for data: 27443600
I20260402 07:29:42.721653 16109 layer_factory.hpp:77] Creating layer pool2
I20260402 07:29:42.721663 16109 net.cpp:84] Creating Layer pool2
I20260402 07:29:42.721671 16109 net.cpp:406] pool2 <- conv2
I20260402 07:29:42.721683 16109 net.cpp:380] pool2 -> pool2
I20260402 07:29:42.721696 16109 net.cpp:122] Setting up pool2
I20260402 07:29:42.721704 16109 net.cpp:129] Top shape: 100 32 8 8 (204800)
I20260402 07:29:42.721714 16109 net.cpp:137] Memory required for data: 28262800
I20260402 07:29:42.721724 16109 layer_factory.hpp:77] Creating layer conv3
I20260402 07:29:42.721738 16109 net.cpp:84] Creating Layer conv3
I20260402 07:29:42.721746 16109 net.cpp:406] conv3 <- pool2
I20260402 07:29:42.721762 16109 net.cpp:380] conv3 -> conv3
I20260402 07:29:42.722177 16109 net.cpp:122] Setting up conv3
I20260402 07:29:42.722186 16109 net.cpp:129] Top shape: 100 64 8 8 (409600)
I20260402 07:29:42.722194 16109 net.cpp:137] Memory required for data: 29901200
I20260402 07:29:42.722206 16109 layer_factory.hpp:77] Creating layer relu3
I20260402 07:29:42.722216 16109 net.cpp:84] Creating Layer relu3
I20260402 07:29:42.722227 16109 net.cpp:406] relu3 <- conv3
I20260402 07:29:42.722239 16109 net.cpp:367] relu3 -> conv3 (in-place)
I20260402 07:29:42.722247 16109 net.cpp:122] Setting up relu3
I20260402 07:29:42.722257 16109 net.cpp:129] Top shape: 100 64 8 8 (409600)
I20260402 07:29:42.722280 16109 net.cpp:137] Memory required for data: 31539600
I20260402 07:29:42.722290 16109 layer_factory.hpp:77] Creating layer pool3
I20260402 07:29:42.722301 16109 net.cpp:84] Creating Layer pool3
I20260402 07:29:42.722311 16109 net.cpp:406] pool3 <- conv3
I20260402 07:29:42.722321 16109 net.cpp:380] pool3 -> pool3
I20260402 07:29:42.722334 16109 net.cpp:122] Setting up pool3
I20260402 07:29:42.722342 16109 net.cpp:129] Top shape: 100 64 4 4 (102400)
I20260402 07:29:42.722360 16109 net.cpp:137] Memory required for data: 31949200
I20260402 07:29:42.722368 16109 layer_factory.hpp:77] Creating layer ip1
I20260402 07:29:42.722388 16109 net.cpp:84] Creating Layer ip1
I20260402 07:29:42.722398 16109 net.cpp:406] ip1 <- pool3
I20260402 07:29:42.722409 16109 net.cpp:380] ip1 -> ip1
I20260402 07:29:42.722872 16109 net.cpp:122] Setting up ip1
I20260402 07:29:42.722882 16109 net.cpp:129] Top shape: 100 64 (6400)
I20260402 07:29:42.722892 16109 net.cpp:137] Memory required for data: 31974800
I20260402 07:29:42.722901 16109 layer_factory.hpp:77] Creating layer ip2
I20260402 07:29:42.722911 16109 net.cpp:84] Creating Layer ip2
I20260402 07:29:42.722920 16109 net.cpp:406] ip2 <- ip1
I20260402 07:29:42.722930 16109 net.cpp:380] ip2 -> ip2
I20260402 07:29:42.722945 16109 net.cpp:122] Setting up ip2
I20260402 07:29:42.722952 16109 net.cpp:129] Top shape: 100 10 (1000)
I20260402 07:29:42.722960 16109 net.cpp:137] Memory required for data: 31978800
I20260402 07:29:42.722970 16109 layer_factory.hpp:77] Creating layer loss
I20260402 07:29:42.722982 16109 net.cpp:84] Creating Layer loss
I20260402 07:29:42.722990 16109 net.cpp:406] loss <- ip2
I20260402 07:29:42.722998 16109 net.cpp:406] loss <- label
I20260402 07:29:42.723007 16109 net.cpp:380] loss -> loss
…
I20260402 07:29:42.723340 16109 solver.cpp:172] Creating test net (#0) specified by net file: examples/cifar10/cifar10_quick_train_test.prototxt
I20260402 07:29:42.723452 16109 net.cpp:294] The NetState phase (1) differed from the phase (0) specified by a rule in layer cifar
I20260402 07:29:42.723466 16109 net.cpp:51] Initializing net from parameters:
name: "CIFAR10_quick"
state {
  phase: TEST
}
layer {
  name: "cifar"
  type: "Data"
  top: "data"
  top: "label"
  include {
    phase: TEST
  }
  transform_param {
    mean_file: "examples/cifar10/mean.binaryproto"
  }
  data_param {
    source: "examples/cifar10/cifar10_test_lmdb"
    batch_size: 100
    backend: LMDB
  }
}
layer {
  name: "conv1"
  type: "Convolution"
  bottom: "data"
  top: "conv1"
  param {
    lr_mult: 1
  }
  param {
    lr_mult: 2
  }
  convolution_param {
    num_output: 32
    pad: 2
    kernel_size: 5
    stride: 1
    weight_filler {
      type: "gaussian"
      std: 0.0001
    }
    bias_filler {
      type: "constant"
    }
  }
}
layer {
  name: "pool1"
  type: "Pooling"
  bottom: "conv1"
  top: "pool1"
  pooling_param {
    pool: MAX
    kernel_size: 3
    stride: 2
  }
}
layer {
  name: "relu1"
  type: "ReLU"
  bottom: "pool1"
  top: "pool1"
}
layer {
  name: "conv2"
  type: "Convolution"
  bottom: "pool1"
  top: "conv2"
  param {
    lr_mult: 1
  }
  param {
    lr_mult: 2
  }
  convolution_param {
    num_output: 32
    pad: 2
    kernel_size: 5
    stride: 1
    weight_filler {
      type: "gaussian"
      std: 0.01
    }
    bias_filler {
      type: "constant"
    }
  }
}
layer {
  name: "relu2"
  type: "ReLU"
  bottom: "conv2"
  top: "conv2"
}
layer {
  name: "pool2"
  type: "Pooling"
  bottom: "conv2"
  top: "pool2"
  pooling_param {
    pool: AVE
    kernel_size: 3
    stride: 2
  }
}
layer {
  name: "conv3"
  type: "Convolution"
  bottom: "pool2"
  top: "conv3"
  param {
    lr_mult: 1
  }
  param {
    lr_mult: 2
  }
  convolution_param {
    num_output: 64
    pad: 2
    kernel_size: 5
    stride: 1
    weight_filler {
      type: "gaussian"
      std: 0.01
    }
    bias_filler {
      type: "constant"
    }
  }
}
layer {
  name: "relu3"
  type: "ReLU"
  bottom: "conv3"
  top: "conv3"
}
layer {
  name: "pool3"
  type: "Pooling"
  bottom: "conv3"
  top: "pool3"
  pooling_param {
    pool: AVE
    kernel_size: 3
    stride: 2
  }
}
layer {
  name: "ip1"
  type: "InnerProduct"
  bottom: "pool3"
  top: "ip1"
  param {
    lr_mult: 1
  }
  param {
    lr_mult: 2
  }
  inner_product_param {
    num_output: 64
    weight_filler {
      type: "gaussian"
      std: 0.1
    }
    bias_filler {
      type: "constant"
    }
  }
}
layer {
  name: "ip2"
  type: "InnerProduct"
  bottom: "ip1"
  top: "ip2"
  param {
    lr_mult: 1
  }
  param {
    lr_mult: 2
  }
  inner_product_param {
    num_output: 10
    weight_filler {
      type: "gaussian"
      std: 0.1
    }
    bias_filler {
      type: "constant"
    }
  }
}
layer {
  name: "accuracy"
  type: "Accuracy"
  bottom: "ip2"
  bottom: "label"
  top: "accuracy"
  include {
    phase: TEST
  }
}
layer {
  name: "loss"
  type: "SoftmaxWithLoss"
  bottom: "ip2"
  bottom: "label"
  top: "loss"
}
I20260402 07:29:42.723557 16109 layer_factory.hpp:77] Creating layer cifar
I20260402 07:29:42.723623 16109 db_lmdb.cpp:35] Opened lmdb examples/cifar10/cifar10_test_lmdb
I20260402 07:29:42.723636 16109 net.cpp:84] Creating Layer cifar
I20260402 07:29:42.723650 16109 net.cpp:380] cifar -> data
I20260402 07:29:42.723661 16109 net.cpp:380] cifar -> label
I20260402 07:29:42.723671 16109 data_transformer.cpp:25] Loading mean file from: examples/cifar10/mean.binaryproto
I20260402 07:29:42.723723 16109 data_layer.cpp:45] output data size: 100,3,32,32
I20260402 07:29:42.723819 16109 net.cpp:122] Setting up cifar
I20260402 07:29:42.723829 16109 net.cpp:129] Top shape: 100 3 32 32 (307200)
I20260402 07:29:42.723842 16109 net.cpp:129] Top shape: 100 (100)
I20260402 07:29:42.723850 16109 net.cpp:137] Memory required for data: 1229200
I20260402 07:29:42.723860 16109 layer_factory.hpp:77] Creating layer label_cifar_1_split
I20260402 07:29:42.723872 16109 net.cpp:84] Creating Layer label_cifar_1_split
I20260402 07:29:42.723882 16109 net.cpp:406] label_cifar_1_split <- label
I20260402 07:29:42.723904 16109 net.cpp:380] label_cifar_1_split -> label_cifar_1_split_0
I20260402 07:29:42.723915 16109 net.cpp:380] label_cifar_1_split -> label_cifar_1_split_1
I20260402 07:29:42.723927 16109 net.cpp:122] Setting up label_cifar_1_split
I20260402 07:29:42.723935 16109 net.cpp:129] Top shape: 100 (100)
I20260402 07:29:42.723954 16109 net.cpp:129] Top shape: 100 (100)
I20260402 07:29:42.723963 16109 net.cpp:137] Memory required for data: 1230000
I20260402 07:29:42.723973 16109 layer_factory.hpp:77] Creating layer conv1
I20260402 07:29:42.723986 16109 net.cpp:84] Creating Layer conv1
I20260402 07:29:42.724005 16109 net.cpp:406] conv1 <- data
I20260402 07:29:42.724015 16109 net.cpp:380] conv1 -> conv1
I20260402 07:29:42.724049 16109 net.cpp:122] Setting up conv1
I20260402 07:29:42.724061 16109 net.cpp:129] Top shape: 100 32 32 32 (3276800)
I20260402 07:29:42.724073 16109 net.cpp:137] Memory required for data: 14337200
I20260402 07:29:42.724084 16109 layer_factory.hpp:77] Creating layer pool1
I20260402 07:29:42.724097 16109 net.cpp:84] Creating Layer pool1
I20260402 07:29:42.724105 16109 net.cpp:406] pool1 <- conv1
I20260402 07:29:42.724118 16109 net.cpp:380] pool1 -> pool1
I20260402 07:29:42.724130 16109 net.cpp:122] Setting up pool1
I20260402 07:29:42.724138 16109 net.cpp:129] Top shape: 100 32 16 16 (819200)
I20260402 07:29:42.724150 16109 net.cpp:137] Memory required for data: 17614000
I20260402 07:29:42.724162 16109 layer_factory.hpp:77] Creating layer relu1
I20260402 07:29:42.724174 16109 net.cpp:84] Creating Layer relu1
I20260402 07:29:42.724184 16109 net.cpp:406] relu1 <- pool1
I20260402 07:29:42.724196 16109 net.cpp:367] relu1 -> pool1 (in-place)
I20260402 07:29:42.724207 16109 net.cpp:122] Setting up relu1
I20260402 07:29:42.724220 16109 net.cpp:129] Top shape: 100 32 16 16 (819200)
I20260402 07:29:42.724231 16109 net.cpp:137] Memory required for data: 20890800
I20260402 07:29:42.724239 16109 layer_factory.hpp:77] Creating layer conv2
I20260402 07:29:42.724254 16109 net.cpp:84] Creating Layer conv2
I20260402 07:29:42.724262 16109 net.cpp:406] conv2 <- pool1
I20260402 07:29:42.724272 16109 net.cpp:380] conv2 -> conv2
I20260402 07:29:42.724500 16109 net.cpp:122] Setting up conv2
I20260402 07:29:42.724510 16109 net.cpp:129] Top shape: 100 32 16 16 (819200)
I20260402 07:29:42.724519 16109 net.cpp:137] Memory required for data: 24167600
I20260402 07:29:42.724531 16109 layer_factory.hpp:77] Creating layer relu2
I20260402 07:29:42.724542 16109 net.cpp:84] Creating Layer relu2
I20260402 07:29:42.724553 16109 net.cpp:406] relu2 <- conv2
I20260402 07:29:42.724565 16109 net.cpp:367] relu2 -> conv2 (in-place)
I20260402 07:29:42.724586 16109 net.cpp:122] Setting up relu2
I20260402 07:29:42.724601 16109 net.cpp:129] Top shape: 100 32 16 16 (819200)
I20260402 07:29:42.724611 16109 net.cpp:137] Memory required for data: 27444400
I20260402 07:29:42.724630 16109 layer_factory.hpp:77] Creating layer pool2
I20260402 07:29:42.724645 16109 net.cpp:84] Creating Layer pool2
I20260402 07:29:42.724653 16109 net.cpp:406] pool2 <- conv2
I20260402 07:29:42.724663 16109 net.cpp:380] pool2 -> pool2
I20260402 07:29:42.724673 16109 net.cpp:122] Setting up pool2
I20260402 07:29:42.724686 16109 net.cpp:129] Top shape: 100 32 8 8 (204800)
I20260402 07:29:42.724695 16109 net.cpp:137] Memory required for data: 28263600
I20260402 07:29:42.724704 16109 layer_factory.hpp:77] Creating layer conv3
I20260402 07:29:42.724713 16109 net.cpp:84] Creating Layer conv3
I20260402 07:29:42.724723 16109 net.cpp:406] conv3 <- pool2
I20260402 07:29:42.724740 16109 net.cpp:380] conv3 -> conv3
I20260402 07:29:42.725148 16109 net.cpp:122] Setting up conv3
I20260402 07:29:42.725158 16109 net.cpp:129] Top shape: 100 64 8 8 (409600)
I20260402 07:29:42.725169 16109 net.cpp:137] Memory required for data: 29902000
I20260402 07:29:42.725180 16109 layer_factory.hpp:77] Creating layer relu3
I20260402 07:29:42.725189 16109 net.cpp:84] Creating Layer relu3
I20260402 07:29:42.725198 16109 net.cpp:406] relu3 <- conv3
I20260402 07:29:42.725209 16109 net.cpp:367] relu3 -> conv3 (in-place)
I20260402 07:29:42.725220 16109 net.cpp:122] Setting up relu3
I20260402 07:29:42.725231 16109 net.cpp:129] Top shape: 100 64 8 8 (409600)
I20260402 07:29:42.725241 16109 net.cpp:137] Memory required for data: 31540400
I20260402 07:29:42.725252 16109 layer_factory.hpp:77] Creating layer pool3
I20260402 07:29:42.725262 16109 net.cpp:84] Creating Layer pool3
I20260402 07:29:42.725272 16109 net.cpp:406] pool3 <- conv3
I20260402 07:29:42.725286 16109 net.cpp:380] pool3 -> pool3
I20260402 07:29:42.725296 16109 net.cpp:122] Setting up pool3
I20260402 07:29:42.725304 16109 net.cpp:129] Top shape: 100 64 4 4 (102400)
I20260402 07:29:42.725327 16109 net.cpp:137] Memory required for data: 31950000
I20260402 07:29:42.725338 16109 layer_factory.hpp:77] Creating layer ip1
I20260402 07:29:42.725355 16109 net.cpp:84] Creating Layer ip1
I20260402 07:29:42.725363 16109 net.cpp:406] ip1 <- pool3
I20260402 07:29:42.725376 16109 net.cpp:380] ip1 -> ip1
I20260402 07:29:42.725811 16109 net.cpp:122] Setting up ip1
I20260402 07:29:42.725821 16109 net.cpp:129] Top shape: 100 64 (6400)
I20260402 07:29:42.725832 16109 net.cpp:137] Memory required for data: 31975600
I20260402 07:29:42.725843 16109 layer_factory.hpp:77] Creating layer ip2
I20260402 07:29:42.725853 16109 net.cpp:84] Creating Layer ip2
I20260402 07:29:42.725860 16109 net.cpp:406] ip2 <- ip1
I20260402 07:29:42.725870 16109 net.cpp:380] ip2 -> ip2
I20260402 07:29:42.725889 16109 net.cpp:122] Setting up ip2
I20260402 07:29:42.725900 16109 net.cpp:129] Top shape: 100 10 (1000)
I20260402 07:29:42.725909 16109 net.cpp:137] Memory required for data: 31979600
I20260402 07:29:42.725920 16109 layer_factory.hpp:77] Creating layer ip2_ip2_0_split
I20260402 07:29:42.725942 16109 net.cpp:84] Creating Layer ip2_ip2_0_split
I20260402 07:29:42.725952 16109 net.cpp:406] ip2_ip2_0_split <- ip2
I20260402 07:29:42.725961 16109 net.cpp:380] ip2_ip2_0_split -> ip2_ip2_0_split_0
I20260402 07:29:42.725975 16109 net.cpp:380] ip2_ip2_0_split -> ip2_ip2_0_split_1
I20260402 07:29:42.725983 16109 net.cpp:122] Setting up ip2_ip2_0_split
I20260402 07:29:42.725992 16109 net.cpp:129] Top shape: 100 10 (1000)
I20260402 07:29:42.726001 16109 net.cpp:129] Top shape: 100 10 (1000)
I20260402 07:29:42.726011 16109 net.cpp:137] Memory required for data: 31987600
I20260402 07:29:42.726022 16109 layer_factory.hpp:77] Creating layer accuracy
I20260402 07:29:42.726042 16109 net.cpp:84] Creating Layer accuracy
I20260402 07:29:42.726052 16109 net.cpp:406] accuracy <- ip2_ip2_0_split_0
I20260402 07:29:42.726061 16109 net.cpp:406] accuracy <- label_cifar_1_split_0
I20260402 07:29:42.726073 16109 net.cpp:380] accuracy -> accuracy
…
