…
I20260401 11:14:09.098155  8516 net.cpp:294] The NetState phase (0) differed from the phase (1) specified by a rule in layer accuracy
I20260401 11:14:09.098172  8516 net.cpp:51] Initializing net from parameters: 
name: "CIFAR10_quick"
state {
  phase: TRAIN
  level: 0
  stage: ""
}
layer {
  name: "cifar"
  type: "Data"
  top: "data"
  top: "label"
  include {
    phase: TRAIN
  }
  transform_param {
    mean_file: "examples/cifar10/mean.binaryproto"
  }
  data_param {
    source: "examples/cifar10/cifar10_train_lmdb"
    batch_size: 100
    backend: LMDB
  }
}
layer {
  name: "conv1"
  type: "Convolution"
  bottom: "data"
  top: "conv1"
  param {
    lr_mult: 1
  }
  param {
    lr_mult: 2
  }
  convolution_param {
    num_output: 32
    pad: 2
    kernel_size: 5
    stride: 1
    weight_filler {
      type: "gaussian"
      std: 0.0001
    }
    bias_filler {
      type: "constant"
    }
  }
}
layer {
  name: "pool1"
  type: "Pooling"
  bottom: "conv1"
  top: "pool1"
  pooling_param {
    pool: MAX
    kernel_size: 3
    stride: 2
  }
}
layer {
  name: "relu1"
  type: "ReLU"
  bottom: "pool1"
  top: "pool1"
}
layer {
  name: "conv2"
  type: "Convolution"
  bottom: "pool1"
  top: "conv2"
  param {
    lr_mult: 1
  }
  param {
    lr_mult: 2
  }
  convolution_param {
    num_output: 32
    pad: 2
    kernel_size: 5
    stride: 1
    weight_filler {
      type: "gaussian"
      std: 0.01
    }
    bias_filler {
      type: "constant"
    }
  }
}
layer {
  name: "relu2"
  type: "ReLU"
  bottom: "conv2"
  top: "conv2"
}
layer {
  name: "pool2"
  type: "Pooling"
  bottom: "conv2"
  top: "pool2"
  pooling_param {
    pool: AVE
    kernel_size: 3
    stride: 2
  }
}
layer {
  name: "conv3"
  type: "Convolution"
  bottom: "pool2"
  top: "conv3"
  param {
    lr_mult: 1
  }
  param {
    lr_mult: 2
  }
  convolution_param {
    num_output: 64
    pad: 2
    kernel_size: 5
    stride: 1
    weight_filler {
      type: "gaussian"
      std: 0.01
    }
    bias_filler {
      type: "constant"
    }
  }
}
layer {
  name: "relu3"
  type: "ReLU"
  bottom: "conv3"
  top: "conv3"
}
layer {
  name: "pool3"
  type: "Pooling"
  bottom: "conv3"
  top: "pool3"
  pooling_param {
    pool: AVE
    kernel_size: 3
    stride: 2
  }
}
layer {
  name: "ip1"
  type: "InnerProduct"
  bottom: "pool3"
  top: "ip1"
  param {
    lr_mult: 1
  }
  param {
    lr_mult: 2
  }
  inner_product_param {
    num_output: 64
    weight_filler {
      type: "gaussian"
      std: 0.1
    }
    bias_filler {
      type: "constant"
    }
  }
}
layer {
  name: "ip2"
  type: "InnerProduct"
  bottom: "ip1"
  top: "ip2"
  param {
    lr_mult: 1
  }
  param {
    lr_mult: 2
  }
  inner_product_param {
    num_output: 10
    weight_filler {
      type: "gaussian"
      std: 0.1
    }
    bias_filler {
      type: "constant"
    }
  }
}
layer {
  name: "loss"
  type: "SoftmaxWithLoss"
  bottom: "ip2"
  bottom: "label"
  top: "loss"
}
I20260401 11:14:09.098290  8516 layer_factory.hpp:77] Creating layer cifar
I20260401 11:14:09.098623  8516 db_lmdb.cpp:35] Opened lmdb examples/cifar10/cifar10_train_lmdb
I20260401 11:14:09.098887  8516 net.cpp:84] Creating Layer cifar
I20260401 11:14:09.098935  8516 net.cpp:380] cifar -> data
I20260401 11:14:09.098989  8516 net.cpp:380] cifar -> label
I20260401 11:14:09.099014  8516 data_transformer.cpp:25] Loading mean file from: examples/cifar10/mean.binaryproto
I20260401 11:14:09.099268  8516 data_layer.cpp:45] output data size: 100,3,32,32
I20260401 11:14:09.099565  8516 net.cpp:122] Setting up cifar
I20260401 11:14:09.099581  8516 net.cpp:129] Top shape: 100 3 32 32 (307200)
I20260401 11:14:09.099593  8516 net.cpp:129] Top shape: 100 (100)
I20260401 11:14:09.099601  8516 net.cpp:137] Memory required for data: 1229200
I20260401 11:14:09.099609  8516 layer_factory.hpp:77] Creating layer conv1
I20260401 11:14:09.099632  8516 net.cpp:84] Creating Layer conv1
I20260401 11:14:09.099642  8516 net.cpp:406] conv1 <- data
I20260401 11:14:09.099653  8516 net.cpp:380] conv1 -> conv1
I20260401 11:14:09.099834  8516 net.cpp:122] Setting up conv1
I20260401 11:14:09.099846  8516 net.cpp:129] Top shape: 100 32 32 32 (3276800)
I20260401 11:14:09.099856  8516 net.cpp:137] Memory required for data: 14336400
I20260401 11:14:09.099875  8516 layer_factory.hpp:77] Creating layer pool1
I20260401 11:14:09.099886  8516 net.cpp:84] Creating Layer pool1
I20260401 11:14:09.099907  8516 net.cpp:406] pool1 <- conv1
I20260401 11:14:09.099920  8516 net.cpp:380] pool1 -> pool1
I20260401 11:14:09.099943  8516 net.cpp:122] Setting up pool1
I20260401 11:14:09.099953  8516 net.cpp:129] Top shape: 100 32 16 16 (819200)
I20260401 11:14:09.099960  8516 net.cpp:137] Memory required for data: 17613200
I20260401 11:14:09.099967  8516 layer_factory.hpp:77] Creating layer relu1
I20260401 11:14:09.099979  8516 net.cpp:84] Creating Layer relu1
I20260401 11:14:09.099987  8516 net.cpp:406] relu1 <- pool1
I20260401 11:14:09.099995  8516 net.cpp:367] relu1 -> pool1 (in-place)
I20260401 11:14:09.100008  8516 net.cpp:122] Setting up relu1
I20260401 11:14:09.100016  8516 net.cpp:129] Top shape: 100 32 16 16 (819200)
I20260401 11:14:09.100023  8516 net.cpp:137] Memory required for data: 20890000
I20260401 11:14:09.100030  8516 layer_factory.hpp:77] Creating layer conv2
I20260401 11:14:09.100040  8516 net.cpp:84] Creating Layer conv2
I20260401 11:14:09.100047  8516 net.cpp:406] conv2 <- pool1
I20260401 11:14:09.100055  8516 net.cpp:380] conv2 -> conv2
I20260401 11:14:09.100386  8516 net.cpp:122] Setting up conv2
I20260401 11:14:09.100404  8516 net.cpp:129] Top shape: 100 32 16 16 (819200)
I20260401 11:14:09.100412  8516 net.cpp:137] Memory required for data: 24166800
I20260401 11:14:09.100421  8516 layer_factory.hpp:77] Creating layer relu2
I20260401 11:14:09.100430  8516 net.cpp:84] Creating Layer relu2
I20260401 11:14:09.100436  8516 net.cpp:406] relu2 <- conv2
I20260401 11:14:09.100445  8516 net.cpp:367] relu2 -> conv2 (in-place)
I20260401 11:14:09.100453  8516 net.cpp:122] Setting up relu2
I20260401 11:14:09.100461  8516 net.cpp:129] Top shape: 100 32 16 16 (819200)
I20260401 11:14:09.100467  8516 net.cpp:137] Memory required for data: 27443600
I20260401 11:14:09.100474  8516 layer_factory.hpp:77] Creating layer pool2
I20260401 11:14:09.100481  8516 net.cpp:84] Creating Layer pool2
I20260401 11:14:09.100488  8516 net.cpp:406] pool2 <- conv2
I20260401 11:14:09.100497  8516 net.cpp:380] pool2 -> pool2
I20260401 11:14:09.100505  8516 net.cpp:122] Setting up pool2
I20260401 11:14:09.100512  8516 net.cpp:129] Top shape: 100 32 8 8 (204800)
I20260401 11:14:09.100519  8516 net.cpp:137] Memory required for data: 28262800
I20260401 11:14:09.100526  8516 layer_factory.hpp:77] Creating layer conv3
I20260401 11:14:09.100535  8516 net.cpp:84] Creating Layer conv3
I20260401 11:14:09.100543  8516 net.cpp:406] conv3 <- pool2
I20260401 11:14:09.100550  8516 net.cpp:380] conv3 -> conv3
I20260401 11:14:09.101081  8516 net.cpp:122] Setting up conv3
I20260401 11:14:09.101091  8516 net.cpp:129] Top shape: 100 64 8 8 (409600)
I20260401 11:14:09.101099  8516 net.cpp:137] Memory required for data: 29901200
I20260401 11:14:09.101107  8516 layer_factory.hpp:77] Creating layer relu3
I20260401 11:14:09.101119  8516 net.cpp:84] Creating Layer relu3
I20260401 11:14:09.101127  8516 net.cpp:406] relu3 <- conv3
I20260401 11:14:09.101135  8516 net.cpp:367] relu3 -> conv3 (in-place)
I20260401 11:14:09.101150  8516 net.cpp:122] Setting up relu3
I20260401 11:14:09.101156  8516 net.cpp:129] Top shape: 100 64 8 8 (409600)
I20260401 11:14:09.101198  8516 net.cpp:137] Memory required for data: 31539600
I20260401 11:14:09.101207  8516 layer_factory.hpp:77] Creating layer pool3
I20260401 11:14:09.101214  8516 net.cpp:84] Creating Layer pool3
I20260401 11:14:09.101226  8516 net.cpp:406] pool3 <- conv3
I20260401 11:14:09.101234  8516 net.cpp:380] pool3 -> pool3
I20260401 11:14:09.101245  8516 net.cpp:122] Setting up pool3
I20260401 11:14:09.101253  8516 net.cpp:129] Top shape: 100 64 4 4 (102400)
I20260401 11:14:09.101276  8516 net.cpp:137] Memory required for data: 31949200
I20260401 11:14:09.101284  8516 layer_factory.hpp:77] Creating layer ip1
I20260401 11:14:09.101302  8516 net.cpp:84] Creating Layer ip1
I20260401 11:14:09.101310  8516 net.cpp:406] ip1 <- pool3
I20260401 11:14:09.101318  8516 net.cpp:380] ip1 -> ip1
I20260401 11:14:09.102028  8516 net.cpp:122] Setting up ip1
I20260401 11:14:09.102058  8516 net.cpp:129] Top shape: 100 64 (6400)
I20260401 11:14:09.102070  8516 net.cpp:137] Memory required for data: 31974800
I20260401 11:14:09.102079  8516 layer_factory.hpp:77] Creating layer ip2
I20260401 11:14:09.102099  8516 net.cpp:84] Creating Layer ip2
I20260401 11:14:09.102108  8516 net.cpp:406] ip2 <- ip1
I20260401 11:14:09.102120  8516 net.cpp:380] ip2 -> ip2
I20260401 11:14:09.102149  8516 net.cpp:122] Setting up ip2
I20260401 11:14:09.102174  8516 net.cpp:129] Top shape: 100 10 (1000)
I20260401 11:14:09.102185  8516 net.cpp:137] Memory required for data: 31978800
I20260401 11:14:09.102195  8516 layer_factory.hpp:77] Creating layer loss
I20260401 11:14:09.102210  8516 net.cpp:84] Creating Layer loss
I20260401 11:14:09.102218  8516 net.cpp:406] loss <- ip2
I20260401 11:14:09.102226  8516 net.cpp:406] loss <- label
I20260401 11:14:09.102234  8516 net.cpp:380] loss -> loss
…
I20260401 11:14:09.102770  8516 net.cpp:294] The NetState phase (1) differed from the phase (0) specified by a rule in layer cifar
I20260401 11:14:09.102787  8516 net.cpp:51] Initializing net from parameters: 
name: "CIFAR10_quick"
state {
  phase: TEST
}
layer {
  name: "cifar"
  type: "Data"
  top: "data"
  top: "label"
  include {
    phase: TEST
  }
  transform_param {
    mean_file: "examples/cifar10/mean.binaryproto"
  }
  data_param {
    source: "examples/cifar10/cifar10_test_lmdb"
    batch_size: 100
    backend: LMDB
  }
}
layer {
  name: "conv1"
  type: "Convolution"
  bottom: "data"
  top: "conv1"
  param {
    lr_mult: 1
  }
  param {
    lr_mult: 2
  }
  convolution_param {
    num_output: 32
    pad: 2
    kernel_size: 5
    stride: 1
    weight_filler {
      type: "gaussian"
      std: 0.0001
    }
    bias_filler {
      type: "constant"
    }
  }
}
layer {
  name: "pool1"
  type: "Pooling"
  bottom: "conv1"
  top: "pool1"
  pooling_param {
    pool: MAX
    kernel_size: 3
    stride: 2
  }
}
layer {
  name: "relu1"
  type: "ReLU"
  bottom: "pool1"
  top: "pool1"
}
layer {
  name: "conv2"
  type: "Convolution"
  bottom: "pool1"
  top: "conv2"
  param {
    lr_mult: 1
  }
  param {
    lr_mult: 2
  }
  convolution_param {
    num_output: 32
    pad: 2
    kernel_size: 5
    stride: 1
    weight_filler {
      type: "gaussian"
      std: 0.01
    }
    bias_filler {
      type: "constant"
    }
  }
}
layer {
  name: "relu2"
  type: "ReLU"
  bottom: "conv2"
  top: "conv2"
}
layer {
  name: "pool2"
  type: "Pooling"
  bottom: "conv2"
  top: "pool2"
  pooling_param {
    pool: AVE
    kernel_size: 3
    stride: 2
  }
}
layer {
  name: "conv3"
  type: "Convolution"
  bottom: "pool2"
  top: "conv3"
  param {
    lr_mult: 1
  }
  param {
    lr_mult: 2
  }
  convolution_param {
    num_output: 64
    pad: 2
    kernel_size: 5
    stride: 1
    weight_filler {
      type: "gaussian"
      std: 0.01
    }
    bias_filler {
      type: "constant"
    }
  }
}
layer {
  name: "relu3"
  type: "ReLU"
  bottom: "conv3"
  top: "conv3"
}
layer {
  name: "pool3"
  type: "Pooling"
  bottom: "conv3"
  top: "pool3"
  pooling_param {
    pool: AVE
    kernel_size: 3
    stride: 2
  }
}
layer {
  name: "ip1"
  type: "InnerProduct"
  bottom: "pool3"
  top: "ip1"
  param {
    lr_mult: 1
  }
  param {
    lr_mult: 2
  }
  inner_product_param {
    num_output: 64
    weight_filler {
      type: "gaussian"
      std: 0.1
    }
    bias_filler {
      type: "constant"
    }
  }
}
layer {
  name: "ip2"
  type: "InnerProduct"
  bottom: "ip1"
  top: "ip2"
  param {
    lr_mult: 1
  }
  param {
    lr_mult: 2
  }
  inner_product_param {
    num_output: 10
    weight_filler {
      type: "gaussian"
      std: 0.1
    }
    bias_filler {
      type: "constant"
    }
  }
}
layer {
  name: "accuracy"
  type: "Accuracy"
  bottom: "ip2"
  bottom: "label"
  top: "accuracy"
  include {
    phase: TEST
  }
}
layer {
  name: "loss"
  type: "SoftmaxWithLoss"
  bottom: "ip2"
  bottom: "label"
  top: "loss"
}
I20260401 11:14:09.102949  8516 layer_factory.hpp:77] Creating layer cifar
I20260401 11:14:09.103231  8516 db_lmdb.cpp:35] Opened lmdb examples/cifar10/cifar10_test_lmdb
I20260401 11:14:09.103266  8516 net.cpp:84] Creating Layer cifar
I20260401 11:14:09.103277  8516 net.cpp:380] cifar -> data
I20260401 11:14:09.103295  8516 net.cpp:380] cifar -> label
I20260401 11:14:09.103307  8516 data_transformer.cpp:25] Loading mean file from: examples/cifar10/mean.binaryproto
I20260401 11:14:09.103418  8516 data_layer.cpp:45] output data size: 100,3,32,32
I20260401 11:14:09.103658  8516 net.cpp:122] Setting up cifar
I20260401 11:14:09.103672  8516 net.cpp:129] Top shape: 100 3 32 32 (307200)
I20260401 11:14:09.103722  8516 net.cpp:129] Top shape: 100 (100)
I20260401 11:14:09.103780  8516 net.cpp:137] Memory required for data: 1229200
I20260401 11:14:09.103806  8516 layer_factory.hpp:77] Creating layer label_cifar_1_split
I20260401 11:14:09.103823  8516 net.cpp:84] Creating Layer label_cifar_1_split
I20260401 11:14:09.103832  8516 net.cpp:406] label_cifar_1_split <- label
I20260401 11:14:09.103845  8516 net.cpp:380] label_cifar_1_split -> label_cifar_1_split_0
I20260401 11:14:09.103857  8516 net.cpp:380] label_cifar_1_split -> label_cifar_1_split_1
I20260401 11:14:09.103873  8516 net.cpp:122] Setting up label_cifar_1_split
I20260401 11:14:09.103883  8516 net.cpp:129] Top shape: 100 (100)
I20260401 11:14:09.103889  8516 net.cpp:129] Top shape: 100 (100)
I20260401 11:14:09.103899  8516 net.cpp:137] Memory required for data: 1230000
I20260401 11:14:09.103906  8516 layer_factory.hpp:77] Creating layer conv1
I20260401 11:14:09.103917  8516 net.cpp:84] Creating Layer conv1
I20260401 11:14:09.103964  8516 net.cpp:406] conv1 <- data
I20260401 11:14:09.103979  8516 net.cpp:380] conv1 -> conv1
I20260401 11:14:09.104027  8516 net.cpp:122] Setting up conv1
I20260401 11:14:09.104055  8516 net.cpp:129] Top shape: 100 32 32 32 (3276800)
I20260401 11:14:09.104064  8516 net.cpp:137] Memory required for data: 14337200
I20260401 11:14:09.104076  8516 layer_factory.hpp:77] Creating layer pool1
I20260401 11:14:09.104085  8516 net.cpp:84] Creating Layer pool1
I20260401 11:14:09.104094  8516 net.cpp:406] pool1 <- conv1
I20260401 11:14:09.104103  8516 net.cpp:380] pool1 -> pool1
I20260401 11:14:09.104117  8516 net.cpp:122] Setting up pool1
I20260401 11:14:09.104126  8516 net.cpp:129] Top shape: 100 32 16 16 (819200)
I20260401 11:14:09.104136  8516 net.cpp:137] Memory required for data: 17614000
I20260401 11:14:09.104156  8516 layer_factory.hpp:77] Creating layer relu1
I20260401 11:14:09.104166  8516 net.cpp:84] Creating Layer relu1
I20260401 11:14:09.104180  8516 net.cpp:406] relu1 <- pool1
I20260401 11:14:09.104197  8516 net.cpp:367] relu1 -> pool1 (in-place)
I20260401 11:14:09.104205  8516 net.cpp:122] Setting up relu1
I20260401 11:14:09.104216  8516 net.cpp:129] Top shape: 100 32 16 16 (819200)
I20260401 11:14:09.104224  8516 net.cpp:137] Memory required for data: 20890800
I20260401 11:14:09.104231  8516 layer_factory.hpp:77] Creating layer conv2
I20260401 11:14:09.104240  8516 net.cpp:84] Creating Layer conv2
I20260401 11:14:09.104249  8516 net.cpp:406] conv2 <- pool1
I20260401 11:14:09.104260  8516 net.cpp:380] conv2 -> conv2
I20260401 11:14:09.104661  8516 net.cpp:122] Setting up conv2
I20260401 11:14:09.104694  8516 net.cpp:129] Top shape: 100 32 16 16 (819200)
I20260401 11:14:09.104707  8516 net.cpp:137] Memory required for data: 24167600
I20260401 11:14:09.104717  8516 layer_factory.hpp:77] Creating layer relu2
I20260401 11:14:09.104727  8516 net.cpp:84] Creating Layer relu2
I20260401 11:14:09.104733  8516 net.cpp:406] relu2 <- conv2
I20260401 11:14:09.104748  8516 net.cpp:367] relu2 -> conv2 (in-place)
I20260401 11:14:09.104758  8516 net.cpp:122] Setting up relu2
I20260401 11:14:09.104765  8516 net.cpp:129] Top shape: 100 32 16 16 (819200)
I20260401 11:14:09.104775  8516 net.cpp:137] Memory required for data: 27444400
I20260401 11:14:09.104782  8516 layer_factory.hpp:77] Creating layer pool2
I20260401 11:14:09.104789  8516 net.cpp:84] Creating Layer pool2
I20260401 11:14:09.104796  8516 net.cpp:406] pool2 <- conv2
I20260401 11:14:09.104804  8516 net.cpp:380] pool2 -> pool2
I20260401 11:14:09.104817  8516 net.cpp:122] Setting up pool2
I20260401 11:14:09.104825  8516 net.cpp:129] Top shape: 100 32 8 8 (204800)
I20260401 11:14:09.104832  8516 net.cpp:137] Memory required for data: 28263600
I20260401 11:14:09.104839  8516 layer_factory.hpp:77] Creating layer conv3
I20260401 11:14:09.104849  8516 net.cpp:84] Creating Layer conv3
I20260401 11:14:09.104861  8516 net.cpp:406] conv3 <- pool2
I20260401 11:14:09.104869  8516 net.cpp:380] conv3 -> conv3
I20260401 11:14:09.105451  8516 net.cpp:122] Setting up conv3
I20260401 11:14:09.105476  8516 net.cpp:129] Top shape: 100 64 8 8 (409600)
I20260401 11:14:09.105561  8516 net.cpp:137] Memory required for data: 29902000
I20260401 11:14:09.105592  8516 layer_factory.hpp:77] Creating layer relu3
I20260401 11:14:09.105605  8516 net.cpp:84] Creating Layer relu3
I20260401 11:14:09.105614  8516 net.cpp:406] relu3 <- conv3
I20260401 11:14:09.105625  8516 net.cpp:367] relu3 -> conv3 (in-place)
I20260401 11:14:09.105635  8516 net.cpp:122] Setting up relu3
I20260401 11:14:09.105643  8516 net.cpp:129] Top shape: 100 64 8 8 (409600)
I20260401 11:14:09.105650  8516 net.cpp:137] Memory required for data: 31540400
I20260401 11:14:09.105656  8516 layer_factory.hpp:77] Creating layer pool3
I20260401 11:14:09.105667  8516 net.cpp:84] Creating Layer pool3
I20260401 11:14:09.105674  8516 net.cpp:406] pool3 <- conv3
I20260401 11:14:09.105685  8516 net.cpp:380] pool3 -> pool3
I20260401 11:14:09.105697  8516 net.cpp:122] Setting up pool3
I20260401 11:14:09.105706  8516 net.cpp:129] Top shape: 100 64 4 4 (102400)
I20260401 11:14:09.105744  8516 net.cpp:137] Memory required for data: 31950000
I20260401 11:14:09.105755  8516 layer_factory.hpp:77] Creating layer ip1
I20260401 11:14:09.105769  8516 net.cpp:84] Creating Layer ip1
I20260401 11:14:09.105779  8516 net.cpp:406] ip1 <- pool3
I20260401 11:14:09.105788  8516 net.cpp:380] ip1 -> ip1
I20260401 11:14:09.106503  8516 net.cpp:122] Setting up ip1
I20260401 11:14:09.106527  8516 net.cpp:129] Top shape: 100 64 (6400)
I20260401 11:14:09.106540  8516 net.cpp:137] Memory required for data: 31975600
I20260401 11:14:09.106549  8516 layer_factory.hpp:77] Creating layer ip2
I20260401 11:14:09.106561  8516 net.cpp:84] Creating Layer ip2
I20260401 11:14:09.106570  8516 net.cpp:406] ip2 <- ip1
I20260401 11:14:09.106580  8516 net.cpp:380] ip2 -> ip2
I20260401 11:14:09.106601  8516 net.cpp:122] Setting up ip2
I20260401 11:14:09.106611  8516 net.cpp:129] Top shape: 100 10 (1000)
I20260401 11:14:09.106623  8516 net.cpp:137] Memory required for data: 31979600
I20260401 11:14:09.106634  8516 layer_factory.hpp:77] Creating layer ip2_ip2_0_split
I20260401 11:14:09.106642  8516 net.cpp:84] Creating Layer ip2_ip2_0_split
I20260401 11:14:09.106650  8516 net.cpp:406] ip2_ip2_0_split <- ip2
I20260401 11:14:09.106658  8516 net.cpp:380] ip2_ip2_0_split -> ip2_ip2_0_split_0
I20260401 11:14:09.106667  8516 net.cpp:380] ip2_ip2_0_split -> ip2_ip2_0_split_1
I20260401 11:14:09.106680  8516 net.cpp:122] Setting up ip2_ip2_0_split
I20260401 11:14:09.106688  8516 net.cpp:129] Top shape: 100 10 (1000)
I20260401 11:14:09.106695  8516 net.cpp:129] Top shape: 100 10 (1000)
I20260401 11:14:09.106714  8516 net.cpp:137] Memory required for data: 31987600
I20260401 11:14:09.106724  8516 layer_factory.hpp:77] Creating layer accuracy
I20260401 11:14:09.106739  8516 net.cpp:84] Creating Layer accuracy
I20260401 11:14:09.106747  8516 net.cpp:406] accuracy <- ip2_ip2_0_split_0
I20260401 11:14:09.106757  8516 net.cpp:406] accuracy <- label_cifar_1_split_0
I20260401 11:14:09.106766  8516 net.cpp:380] accuracy -> accuracy
…
