…
er cifar\nI20260401 11:14:09.098623  8516 db_lmdb.cpp:35] Opened lmdb examples/cifar10/cifar10_train_lmdb\nI20260401 11:14:09.098887  8516 net.cpp:84] Creating Layer cifar\nI20260401 11:14:09.098935  8516 net.cpp:380] cifar -> data\nI20260401 11:14:09.098989  8516 net.cpp:380] cifar -> label\nI20260401 11:14:09.099014  8516 data_transformer.cpp:25] Loading mean file from: examples/cifar10/mean.binaryproto\nI20260401 11:14:09.099268  8516 data_layer.cpp:45] output data size: 100,3,32,32\nI20260401 11:14:09.099565  8516 net.cpp:122] Setting up cifar\nI20260401 11:14:09.099581  8516 net.cpp:129] Top shape: 100 3 32 32 (307200)\nI20260401 11:14:09.099593  8516 net.cpp:129] Top shape: 100 (100)\nI20260401 11:14:09.099601  8516 net.cpp:137] Memory required for data: 1229200\nI20260401 11:14:09.099609  8516 layer_factory.hpp:77] Creating layer conv1\nI20260401 11:14:09.099632  8516 net.cpp:84] Creating Layer conv1\nI20260401 11:14:09.099642  8516 net.cpp:406] conv1 <- data\nI20260401 11:14:09.099653  8516 net.cpp:380] conv1 -> conv1\nI20260401 11:14:09.099834  8516 net.cpp:122] Setting up conv1\nI20260401 11:14:09.099846  8516 net.cpp:129] Top shape: 100 32 32 32 (3276800)\nI20260401 11:14:09.099856  8516 net.cpp:137] Memory required for data: 14336400\nI20260401 11:14:09.099875  8516 layer_factory.hpp:77] Creating layer pool1\nI20260401 11:14:09.099886  8516 net.cpp:84] Creating Layer pool1\nI20260401 11:14:09.099907  8516 net.cpp:406] pool1 <- conv1\nI20260401 11:14:09.099920  8516 net.cpp:380] pool1 -> pool1\nI20260401 11:14:09.099943  8516 net.cpp:122] Setting up pool1\nI20260401 11:14:09.099953  8516 net.cpp:129] Top shape: 100 32 16 16 (819200)\nI20260401 11:14:09.099960  8516 net.cpp:137] Memory required for data: 17613200\nI20260401 11:14:09.099967  8516 layer_factory.hpp:77] Creating layer relu1\nI20260401 11:14:09.099979  8516 net.cpp:84] Creating Layer relu1\nI20260401 11:14:09.099987  8516 net.cpp:406] relu1 <- pool1\nI20260401 11:14:09.099995  8516 net.cpp:367] relu1 -> pool1 (in-place)\nI20260401 11:14:09.100008  8516 net.cpp:122] Setting up relu1\nI20260401 11:14:09.100016  8516 net.cpp:129] Top shape: 100 32 16 16 (819200)\nI20260401 11:14:09.100023  8516 net.cpp:137] Memory required for data: 20890000\nI20260401 11:14:09.100030  8516 layer_factory.hpp:77] Creating layer conv2\nI20260401 11:14:09.100040  8516 net.cpp:84] Creating Layer conv2\nI20260401 11:14:09.100047  8516 net.cpp:406] conv2 <- pool1\nI20260401 11:14:09.100055  8516 net.cpp:380] conv2 -> conv2\nI20260401 11:14:09.100386  8516 net.cpp:122] Setting up conv2\nI20260401 11:14:09.100404  8516 net.cpp:129] Top shape: 100 32 16 16 (819200)\nI20260401 11:14:09.100412  8516 net.cpp:137] Memory required for data: 24166800\nI20260401 11:14:09.100421  8516 layer_factory.hpp:77] Creating layer relu2\nI20260401 11:14:09.100430  8516 net.cpp:84] Creating Layer relu2\nI20260401 11:14:09.100436  8516 net.cpp:406] relu2 <- conv2\nI20260401 11:14:09.100445  8516 net.cpp:367] relu2 -> conv2 (in-place)\nI20260401 11:14:09.100453  8516 net.cpp:122] Setting up relu2\nI20260401 11:14:09.100461  8516 net.cpp:129] Top shape: 100 32 16 16 (819200)\nI20260401 11:14:09.100467  8516 net.cpp:137] Memory required for data: 27443600\nI20260401 11:14:09.100474  8516 layer_factory.hpp:77] Creating layer pool2\nI20260401 11:14:09.100481  8516 net.cpp:84] Creating Layer pool2\nI20260401 11:14:09.100488  8516 net.cpp:406] pool2 <- conv2\nI20260401 11:14:09.100497  8516 net.cpp:380] pool2 -> pool2\nI20260401 11:14:09.100505  8516 net.cpp:122] Setting up pool2\nI20260401 11:14:09.100512  8516 net.cpp:129] Top shape: 100 32 8 8 (204800)\nI20260401 11:14:09.100519  8516 net.cpp:137] Memory required for data: 28262800\nI20260401 11:14:09.100526  8516 layer_factory.hpp:77] Creating layer conv3\nI20260401 11:14:09.100535  8516 net.cpp:84] Creating Layer conv3\nI20260401 11:14:09.100543  8516 net.cpp:406] conv3 <- pool2\nI20260401 11:14:09.100550  8516 net.cpp:380] conv3 -> conv3\nI20260401 11:14:09.101081  8516 net.cpp:122] Setting up conv3\nI20260401 11:14:09.101091  8516 net.cpp:129] Top shape: 100 64 8 8 (409600)\nI20260401 11:14:09.101099  8516 net.cpp:137] Memory required for data: 29901200\nI20260401 11:14:09.101107  8516 layer_factory.hpp:77] Creating layer relu3\nI20260401 11:14:09.101119  8516 net.cpp:84] Creating Layer relu3\nI20260401 11:14:09.101127  8516 net.cpp:406] relu3 <- conv3\nI20260401 11:14:09.101135  8516 net.cpp:367] relu3 -> conv3 (in-place)\nI20260401 11:14:09.101150  8516 net.cpp:122] Setting up relu3\nI20260401 11:14:09.101156  8516 net.cpp:129] Top shape: 100 64 8 8 (409600)\nI20260401 11:14:09.101198  8516 net.cpp:137] Memory required for data: 31539600\nI20260401 11:14:09.101207  8516 layer_factory.hpp:77] Creating layer pool3\nI20260401 11:14:09.101214  8516 net.cpp:84] Creating Layer pool3\nI20260401 11:14:09.101226  8516 net.cpp:406] pool3 <- conv3\nI20260401 11:14:09.101234  8516 net.cpp:380] pool3 -> pool3\nI20260401 11:14:09.101245  8516 net.cpp:122] Setting up pool3\nI20260401 11:14:09.101253  8516 net.cpp:129] Top shape: 100 64 4 4 (102400)\nI20260401 11:14:09.101276  8516 net.cpp:137] Memory required for data: 31949200\nI20260401 11:14:09.101284  8516 layer_factory.hpp:77] Creating layer ip1\nI20260401 11:14:09.101302  8516 net.cpp:84] Creating Layer ip1\nI20260401 11:14:09.101310  8516 net.cpp:406] ip1 <- pool3\nI20260401 11:14:09.101318  8516 net.cpp:380] ip1 -> ip1\nI20260401 11:14:09.102028  8516 net.cpp:122] Setting up ip1\nI20260401 11:14:09.102058  8516 net.cpp:129] Top shape: 100 64 (6400)\nI20260401 11:14:09.102070  8516 net.cpp:137] Memory required for data: 31974800\nI20260401 11:14:09.102079  8516 layer_factory.hpp:77] Creating layer ip2\nI20260401 11:14:09.102099  8516 net.cpp:84] Creating Layer ip2\nI20260401 11:14:09.102108  8516 net.cpp:406] ip2 <- ip1\nI20260401 11:14:09.102120  8516 net.cpp:380] ip2 -> ip2\nI20260401 11:14:09.102149  8516 net.cpp:122] Setting up ip2\nI20260401 11:14:09.102174  8516 net.cpp:129] Top shape: 100 10 (1000)\nI20260401 11:14:09.102185  8516 net.cpp:137] Memory required for data: 31978800\nI20260401 11:14:09.102195  8516 layer_factory.hpp:77] Creating layer loss\nI20260401 11:14:09.102210  8516 net.cpp:84] Creating Layer loss\nI20260401 11:14:09.102218  8516 net.cpp:406] loss <- ip2\nI20260401 11:14:09.102226  8516 net.cpp:406] loss <- label\nI20260401 11:14:09.102234  8516 net.cpp:380] lo
…
yer cifar\nI20260401 11:14:09.103231  8516 db_lmdb.cpp:35] Opened lmdb examples/cifar10/cifar10_test_lmdb\nI20260401 11:14:09.103266  8516 net.cpp:84] Creating Layer cifar\nI20260401 11:14:09.103277  8516 net.cpp:380] cifar -> data\nI20260401 11:14:09.103295  8516 net.cpp:380] cifar -> label\nI20260401 11:14:09.103307  8516 data_transformer.cpp:25] Loading mean file from: examples/cifar10/mean.binaryproto\nI20260401 11:14:09.103418  8516 data_layer.cpp:45] output data size: 100,3,32,32\nI20260401 11:14:09.103658  8516 net.cpp:122] Setting up cifar\nI20260401 11:14:09.103672  8516 net.cpp:129] Top shape: 100 3 32 32 (307200)\nI20260401 11:14:09.103722  8516 net.cpp:129] Top shape: 100 (100)\nI20260401 11:14:09.103780  8516 net.cpp:137] Memory required for data: 1229200\nI20260401 11:14:09.103806  8516 layer_factory.hpp:77] Creating layer label_cifar_1_split\nI20260401 11:14:09.103823  8516 net.cpp:84] Creating Layer label_cifar_1_split\nI20260401 11:14:09.103832  8516 net.cpp:406] label_cifar_1_split <- label\nI20260401 11:14:09.103845  8516 net.cpp:380] label_cifar_1_split -> label_cifar_1_split_0\nI20260401 11:14:09.103857  8516 net.cpp:380] label_cifar_1_split -> label_cifar_1_split_1\nI20260401 11:14:09.103873  8516 net.cpp:122] Setting up label_cifar_1_split\nI20260401 11:14:09.103883  8516 net.cpp:129] Top shape: 100 (100)\nI20260401 11:14:09.103889  8516 net.cpp:129] Top shape: 100 (100)\nI20260401 11:14:09.103899  8516 net.cpp:137] Memory required for data: 1230000\nI20260401 11:14:09.103906  8516 layer_factory.hpp:77] Creating layer conv1\nI20260401 11:14:09.103917  8516 net.cpp:84] Creating Layer conv1\nI20260401 11:14:09.103964  8516 net.cpp:406] conv1 <- data\nI20260401 11:14:09.103979  8516 net.cpp:380] conv1 -> conv1\nI20260401 11:14:09.104027  8516 net.cpp:122] Setting up conv1\nI20260401 11:14:09.104055  8516 net.cpp:129] Top shape: 100 32 32 32 (3276800)\nI20260401 11:14:09.104064  8516 net.cpp:137] Memory required for data: 14337200\nI20260401 11:14:09.104076  8516 layer_factory.hpp:77] Creating layer pool1\nI20260401 11:14:09.104085  8516 net.cpp:84] Creating Layer pool1\nI20260401 11:14:09.104094  8516 net.cpp:406] pool1 <- conv1\nI20260401 11:14:09.104103  8516 net.cpp:380] pool1 -> pool1\nI20260401 11:14:09.104117  8516 net.cpp:122] Setting up pool1\nI20260401 11:14:09.104126  8516 net.cpp:129] Top shape: 100 32 16 16 (819200)\nI20260401 11:14:09.104136  8516 net.cpp:137] Memory required for data: 17614000\nI20260401 11:14:09.104156  8516 layer_factory.hpp:77] Creating layer relu1\nI20260401 11:14:09.104166  8516 net.cpp:84] Creating Layer relu1\nI20260401 11:14:09.104180  8516 net.cpp:406] relu1 <- pool1\nI20260401 11:14:09.104197  8516 net.cpp:367] relu1 -> pool1 (in-place)\nI20260401 11:14:09.104205  8516 net.cpp:122] Setting up relu1\nI20260401 11:14:09.104216  8516 net.cpp:129] Top shape: 100 32 16 16 (819200)\nI20260401 11:14:09.104224  8516 net.cpp:137] Memory required for data: 20890800\nI20260401 11:14:09.104231  8516 layer_factory.hpp:77] Creating layer conv2\nI20260401 11:14:09.104240  8516 net.cpp:84] Creating Layer conv2\nI20260401 11:14:09.104249  8516 net.cpp:406] conv2 <- pool1\nI20260401 11:14:09.104260  8516 net.cpp:380] conv2 -> conv2\nI20260401 11:14:09.104661  8516 net.cpp:122] Setting up conv2\nI20260401 11:14:09.104694  8516 net.cpp:129] Top shape: 100 32 16 16 (819200)\nI20260401 11:14:09.104707  8516 net.cpp:137] Memory required for data: 24167600\nI20260401 11:14:09.104717  8516 layer_factory.hpp:77] Creating layer relu2\nI20260401 11:14:09.104727  8516 net.cpp:84] Creating Layer relu2\nI20260401 11:14:09.104733  8516 net.cpp:406] relu2 <- conv2\nI20260401 11:14:09.104748  8516 net.cpp:367] relu2 -> conv2 (in-place)\nI20260401 11:14:09.104758  8516 net.cpp:122] Setting up relu2\nI20260401 11:14:09.104765  8516 net.cpp:129] Top shape: 100 32 16 16 (819200)\nI20260401 11:14:09.104775  8516 net.cpp:137] Memory required for data: 27444400\nI20260401 11:14:09.104782  8516 layer_factory.hpp:77] Creating layer pool2\nI20260401 11:14:09.104789  8516 net.cpp:84] Creating Layer pool2\nI20260401 11:14:09.104796  8516 net.cpp:406] pool2 <- conv2\nI20260401 11:14:09.104804  8516 net.cpp:380] pool2 -> pool2\nI20260401 11:14:09.104817  8516 net.cpp:122] Setting up pool2\nI20260401 11:14:09.104825  8516 net.cpp:129] Top shape: 100 32 8 8 (204800)\nI20260401 11:14:09.104832  8516 net.cpp:137] Memory required for data: 28263600\nI20260401 11:14:09.104839  8516 layer_factory.hpp:77] Creating layer conv3\nI20260401 11:14:09.104849  8516 net.cpp:84] Creating Layer conv3\nI20260401 11:14:09.104861  8516 net.cpp:406] conv3 <- pool2\nI20260401 11:14:09.104869  8516 net.cpp:380] conv3 -> conv3\nI20260401 11:14:09.105451  8516 net.cpp:122] Setting up conv3\nI20260401 11:14:09.105476  8516 net.cpp:129] Top shape: 100 64 8 8 (409600)\nI20260401 11:14:09.105561  8516 net.cpp:137] Memory required for data: 29902000\nI20260401 11:14:09.105592  8516 layer_factory.hpp:77] Creating layer relu3\nI20260401 11:14:09.105605  8516 net.cpp:84] Creating Layer relu3\nI20260401 11:14:09.105614  8516 net.cpp:406] relu3 <- conv3\nI20260401 11:14:09.105625  8516 net.cpp:367] relu3 -> conv3 (in-place)\nI20260401 11:14:09.105635  8516 net.cpp:122] Setting up relu3\nI20260401 11:14:09.105643  8516 net.cpp:129] Top shape: 100 64 8 8 (409600)\nI20260401 11:14:09.105650  8516 net.cpp:137] Memory required for data: 31540400\nI20260401 11:14:09.105656  8516 layer_factory.hpp:77] Creating layer pool3\nI20260401 11:14:09.105667  8516 net.cpp:84] Creating Layer pool3\nI20260401 11:14:09.105674  8516 net.cpp:406] pool3 <- conv3\nI20260401 11:14:09.105685  8516 net.cpp:380] pool3 -> pool3\nI20260401 11:14:09.105697  8516 net.cpp:122] Setting up pool3\nI20260401 11:14:09.105706  8516 net.cpp:129] Top shape: 100 64 4 4 (102400)\nI20260401 11:14:09.105744  8516 net.cpp:137] Memory required for data: 31950000\nI20260401 11:14:09.105755  8516 layer_factory.hpp:77] Creating layer ip1\nI20260401 11:14:09.105769  8516 net.cpp:84] Creating Layer ip1\nI20260401 11:14:09.105779  8516 net.cpp:406] ip1 <- pool3\nI20260401 11:14:09.105788  8516 net.cpp:380] ip1 -> ip1\nI20260401 11:14:09.106503  8516 net.cpp:122] Setting up ip1\nI20260401 11:14:09.106527  8516 net.cpp:129] Top shape: 100 64 (6400)\nI20260401 11:14:09.106540  8516 net.cpp:137] Memory required for data: 31975600\nI20260401 11:14:09.106549  8516 layer_factory.hpp:77] Creating layer ip2\nI20260401 11:14:09.106561  8516 net.cpp:84] Creating Layer ip2\nI20260401 11:14:09.106570  8516 net.cpp:406] ip2 <- ip1\nI20260401 11:14:09.106580  8516 net.cpp:380] ip2 -> ip2\nI20260401 11:14:09.106601  8516 net.cpp:122] Setting up ip2\nI20260401 11:14:09.106611  8516 net.cpp:129] Top shape: 100 10 (1000)\nI20260401 11:14:09.106623  8516 net.cpp:137] Memory required for data: 31979600\nI20260401 11:14:09.106634  8516 layer_factory.hpp:77] Creating layer ip2_ip2_0_split\nI20260401 11:14:09.106642  8516 net.cpp:84] Creating Layer ip2_ip2_0_split\nI20260401 11:14:09.106650  8516 net.cpp:406] ip2_ip2_0_split <- ip2\nI20260401 11:14:09.106658  8516 net.cpp:380] ip2_ip2_0_split -> ip2_ip2_0_split_0\nI20260401 11:14:09.106667  8516 net.cpp:380] ip2_ip2_0_split -> ip2_ip2_0_split_1\nI20260401 11:14:09.106680  8516 net.cpp:122] Setting up ip2_ip2_0_split\nI20260401 11:14:09.106688  8516 net.cpp:129] Top shape: 100 10 (1000)\nI20260401 11:14:09.106695  8516 net.cpp:129] Top shape: 100 10 (1000)\nI20260401 11:14:09.106714  8516 net.cpp:137] Memory required for data: 31987600\nI20260401 11:14:09.106724  8516 layer_factory.hpp:77] Creating layer accuracy\nI20260401 11:14:09.106739  8516 net.cpp:84] Creating Layer accuracy\nI20260401 11:14:09.106747  8516 net.cpp:406] accuracy <- ip2_ip2_0_split_0\nI20260401 11:14:09.106757  8516 net.cpp:406] accuracy <- label_cifar_1_split_0\nI
…
