…
 examples/cifar10/cifar10_test_lmdb\nE         I20260402 07:32:42.855592 17953 net.cpp:84] Creating Layer cifar\nE         I20260402 07:32:42.855603 17953 net.cpp:380] cifar -> data\nE         I20260402 07:32:42.855634 17953 net.cpp:380] cifar -> label\nE         I20260402 07:32:42.855650 17953 data_transformer.cpp:25] Loading mean file from: examples/cifar10/mean.binaryproto\nE         I20260402 07:32:42.855731 17953 data_layer.cpp:45] output data size: 100,3,32,32\nE         I20260402 07:32:42.855872 17953 net.cpp:122] Setting up cifar\nE         I20260402 07:32:42.855883 17953 net.cpp:129] Top shape: 100 3 32 32 (307200)\nE         I20260402 07:32:42.855893 17953 net.cpp:129] Top shape: 100 (100)\nE         I20260402 07:32:42.855901 17953 net.cpp:137] Memory required for data: 1229200\nE         I20260402 07:32:42.855911 17953 layer_factory.hpp:77] Creating layer label_cifar_1_split\nE         I20260402 07:32:42.855926 17953 net.cpp:84] Creating Layer label_cifar_1_split\nE         I20260402 07:32:42.855934 17953 net.cpp:406] label_cifar_1_split <- label\nE         I20260402 07:32:42.855960 17953 net.cpp:380] label_cifar_1_split -> label_cifar_1_split_0\nE         I20260402 07:32:42.855970 17953 net.cpp:380] label_cifar_1_split -> label_cifar_1_split_1\nE         I20260402 07:32:42.855983 17953 net.cpp:122] Setting up label_cifar_1_split\nE         I20260402 07:32:42.855990 17953 net.cpp:129] Top shape: 100 (100)\nE         I20260402 07:32:42.855998 17953 net.cpp:129] Top shape: 100 (100)\nE         I20260402 07:32:42.856007 17953 net.cpp:137] Memory required for data: 1230000\nE         I20260402 07:32:42.856019 17953 layer_factory.hpp:77] Creating layer conv1\nE         I20260402 07:32:42.856035 17953 net.cpp:84] Creating Layer conv1\nE         I20260402 07:32:42.856043 17953 net.cpp:406] conv1 <- data\nE         I20260402 07:32:42.856052 17953 net.cpp:380] conv1 -> conv1\nE         I20260402 07:32:42.856096 17953 net.cpp:122] Setting up conv1\nE         I20260402 07:32:42.856106 17953 net.cpp:129] Top shape: 100 32 32 32 (3276800)\nE         I20260402 07:32:42.856117 17953 net.cpp:137] Memory required for data: 14337200\nE         I20260402 07:32:42.856132 17953 layer_factory.hpp:77] Creating layer pool1\nE         I20260402 07:32:42.856141 17953 net.cpp:84] Creating Layer pool1\nE         I20260402 07:32:42.856149 17953 net.cpp:406] pool1 <- conv1\nE         I20260402 07:32:42.856158 17953 net.cpp:380] pool1 -> pool1\nE         I20260402 07:32:42.856173 17953 net.cpp:122] Setting up pool1\nE         I20260402 07:32:42.856180 17953 net.cpp:129] Top shape: 100 32 16 16 (819200)\nE         I20260402 07:32:42.856189 17953 net.cpp:137] Memory required for data: 17614000\nE         I20260402 07:32:42.856196 17953 layer_factory.hpp:77] Creating layer relu1\nE         I20260402 07:32:42.856206 17953 net.cpp:84] Creating Layer relu1\nE         I20260402 07:32:42.856215 17953 net.cpp:406] relu1 <- pool1\nE         I20260402 07:32:42.856225 17953 net.cpp:367] relu1 -> pool1 (in-place)\nE         I20260402 07:32:42.856237 17953 net.cpp:122] Setting up relu1\nE         I20260402 07:32:42.856245 17953 net.cpp:129] Top shape: 100 32 16 16 (819200)\nE         I20260402 07:32:42.856256 17953 net.cpp:137] Memory required for data: 20890800\nE         I20260402 07:32:42.856264 17953 layer_factory.hpp:77] Creating layer conv2\nE         I20260402 07:32:42.856276 17953 net.cpp:84] Creating Layer conv2\nE         I20260402 07:32:42.856282 17953 net.cpp:406] conv2 <- pool1\nE         I20260402 07:32:42.856292 17953 net.cpp:380] conv2 -> conv2\nE         I20260402 07:32:42.856480 17953 net.cpp:122] Setting up conv2\nE         I20260402 07:32:42.856488 17953 net.cpp:129] Top shape: 100 32 16 16 (819200)\nE         I20260402 07:32:42.856498 17953 net.cpp:137] Memory required for data: 24167600\nE         I20260402 07:32:42.856508 17953 layer_factory.hpp:77] Creating layer relu2\nE         I20260402 07:32:42.856516 17953 net.cpp:84] Creating Layer relu2\nE         I20260402 07:32:42.856525 17953 net.cpp:406] relu2 <- conv2\nE         I20260402 07:32:42.856535 17953 net.cpp:367] relu2 -> conv2 (in-place)\nE         I20260402 07:32:42.856545 17953 net.cpp:122] Setting up relu2\nE         I20260402 07:32:42.856554 17953 net.cpp:129] Top shape: 100 32 16 16 (819200)\nE         I20260402 07:32:42.856564 17953 net.cpp:137] Memory required for data: 27444400\nE         I20260402 07:32:42.856583 17953 layer_factory.hpp:77] Creating layer pool2\nE         I20260402 07:32:42.856593 17953 net.cpp:84] Creating Layer pool2\nE         I20260402 07:32:42.856604 17953 net.cpp:406] pool2 <- conv2\nE         I20260402 07:32:42.856614 17953 net.cpp:380] pool2 -> pool2\nE         I20260402 07:32:42.856626 17953 net.cpp:122] Setting up pool2\nE         I20260402 07:32:42.856634 17953 net.cpp:129] Top shape: 100 32 8 8 (204800)\nE         I20260402 07:32:42.856644 17953 net.cpp:137] Memory required for data: 28263600\nE         I20260402 07:32:42.856654 17953 layer_factory.hpp:77] Creating layer conv3\nE         I20260402 07:32:42.856663 17953 net.cpp:84] Creating Layer conv3\nE         I20260402 07:32:42.856673 17953 net.cpp:406] conv3 <- pool2\nE         I20260402 07:32:42.856689 17953 net.cpp:380] conv3 -> conv3\nE         I20260402 07:32:42.857029 17953 net.cpp:122] Setting up conv3\nE         I20260402 07:32:42.857039 17953 net.cpp:129] Top shape: 100 64 8 8 (409600)\nE         I20260402 07:32:42.857048 17953 net.cpp:137] Memory required for data: 29902000\nE         I20260402 07:32:42.857057 17953 layer_factory.hpp:77] Creating layer relu3\nE         I20260402 07:32:42.857065 17953 net.cpp:84] Creating Layer relu3\nE         I20260402 07:32:42.857075 17953 net.cpp:406] relu3 <- conv3\nE         I20260402 07:32:42.857086 17953 net.cpp:367] relu3 -> conv3 (in-place)\nE         I20260402 07:32:42.857106 17953 net.cpp:122] Setting up relu3\nE         I20260402 07:32:42.857115 17953 net.cpp:129] Top shape: 100 64 8 8 (409600)\nE         I20260402 07:32:42.857125 17953 net.cpp:137] Memory required for data: 31540400\nE         I20260402 07:32:42.857134 17953 layer_factory.hpp:77] Creating layer pool3\nE         I20260402 07:32:42.857144 17953 net.cpp:84] Creating Layer pool3\nE         I20260402 07:32:42.857153 17953 net.cpp:406] pool3 <- conv3\nE         I20260402 07:32:42.857163 17953 net.cpp:380] pool3 -> pool3\nE         I20260402 07:32:42.857172 17953 net.cpp:122] Setting up pool3\nE         I20260402 07:32:42.857182 17953 net.cpp:129] Top shape: 100 64 4 4 (102400)\nE         I20260402 07:32:42.857200 17953 net.cpp:137] Memory required for data: 31950000\nE         I20260402 07:32:42.857213 17953 layer_factory.hpp:77] Creating layer ip1\nE         I20260402 07:32:42.857225 17953 net.cpp:84] Creating Layer ip1\nE         I20260402 07:32:42.857234 17953 net.cpp:406] ip1 <- pool3\nE         I20260402 07:32:42.857242 17953 net.cpp:380] ip1 -> ip1\nE         I20260402 07:32:42.857666 17953 net.cpp:122] Setting up ip1\nE         I20260402 07:32:42.857676 17953 net.cpp:129] Top shape: 100 64 (6400)\nE         I20260402 07:32:42.857685 17953 net.cpp:137] Memory required for data: 31975600\nE         I20260402 07:32:42.857695 17953 layer_factory.hpp:77] Creating layer ip2\nE         I20260402 07:32:42.857708 17953 net.cpp:84] Creating Layer ip2\nE         I20260402 07:32:42.857717 17953 net.cpp:406] ip2 <- ip1\nE         I20260402 07:32:42.857725 17953 net.cpp:380] ip2 -> ip2\nE         I20260402 07:32:42.857740 17953 net.cpp:122] Setting up ip2\nE         I20260402 07:32:42.857750 17953 net.cpp:129] Top shape: 100 10 (1000)\nE         I20260402 07:32:42.857758 17953 net.cpp:137] Memory required for data: 31979600\nE         I20260402 07:32:42.857766 17953 layer_factory.hpp:77] Creating layer ip2_ip2_0_split\nE         I20260402 07:32:42.857775 17953 net.cpp:84] Creating Layer ip2_ip2_0_split\nE         I20260402 07:32:42.857784 17953 net.cpp:406] ip2_ip2_0_split <- ip2\nE         I20260402 07:32:42.857793 17953 net.cpp:380] ip2_ip2_0_split -> ip2_ip2_0_split_0\nE         I20260402 07:32:42.857803 17953 net.cpp:380] ip2_ip2_0_split -> ip2_ip2_0_split_1\nE         I20260402 07:32:42.857815 17953 net.cpp:122] Setting up ip2_ip2_0_split\nE         I20260402 07:32:42.857822 17953 net.cpp:129] Top shape: 100 10 (1000)\nE         I20260402 07:32:42.857831 17953 net.cpp:129] Top shape: 100 10 (1000)\nE         I20260402 07:32:42.857841 17953 net.cpp:137] Memory required for data: 31987600\nE         I20260402 07:32:42.857859 17953 layer_factory.hpp:77] Creating layer accuracy\nE         I20260402 07:32:42.857869 17953 net.cpp:84] Creating Layer accuracy\nE         I20260402 07:32:42.857877 17953 net.cpp:406] accuracy <- ip2_ip2_0_split_0\nE         I20260402 07:32:42.857887 17953
…
