…
er cifar\nI20260402 07:29:42.720695 16109 db_lmdb.cpp:35] Opened lmdb examples/cifar10/cifar10_train_lmdb\nI20260402 07:29:42.720722 16109 net.cpp:84] Creating Layer cifar\nI20260402 07:29:42.720733 16109 net.cpp:380] cifar -> data\nI20260402 07:29:42.720760 16109 net.cpp:380] cifar -> label\nI20260402 07:29:42.720778 16109 data_transformer.cpp:25] Loading mean file from: examples/cifar10/mean.binaryproto\nI20260402 07:29:42.720854 16109 data_layer.cpp:45] output data size: 100,3,32,32\nI20260402 07:29:42.721000 16109 net.cpp:122] Setting up cifar\nI20260402 07:29:42.721011 16109 net.cpp:129] Top shape: 100 3 32 32 (307200)\nI20260402 07:29:42.721022 16109 net.cpp:129] Top shape: 100 (100)\nI20260402 07:29:42.721030 16109 net.cpp:137] Memory required for data: 1229200\nI20260402 07:29:42.721038 16109 layer_factory.hpp:77] Creating layer conv1\nI20260402 07:29:42.721052 16109 net.cpp:84] Creating Layer conv1\nI20260402 07:29:42.721061 16109 net.cpp:406] conv1 <- data\nI20260402 07:29:42.721073 16109 net.cpp:380] conv1 -> conv1\nI20260402 07:29:42.721127 16109 net.cpp:122] Setting up conv1\nI20260402 07:29:42.721134 16109 net.cpp:129] Top shape: 100 32 32 32 (3276800)\nI20260402 07:29:42.721143 16109 net.cpp:137] Memory required for data: 14336400\nI20260402 07:29:42.721158 16109 layer_factory.hpp:77] Creating layer pool1\nI20260402 07:29:42.721168 16109 net.cpp:84] Creating Layer pool1\nI20260402 07:29:42.721175 16109 net.cpp:406] pool1 <- conv1\nI20260402 07:29:42.721184 16109 net.cpp:380] pool1 -> pool1\nI20260402 07:29:42.721201 16109 net.cpp:122] Setting up pool1\nI20260402 07:29:42.721210 16109 net.cpp:129] Top shape: 100 32 16 16 (819200)\nI20260402 07:29:42.721220 16109 net.cpp:137] Memory required for data: 17613200\nI20260402 07:29:42.721228 16109 layer_factory.hpp:77] Creating layer relu1\nI20260402 07:29:42.721238 16109 net.cpp:84] Creating Layer relu1\nI20260402 07:29:42.721251 16109 net.cpp:406] relu1 <- pool1\nI20260402 07:29:42.721261 16109 net.cpp:367] relu1 -> pool1 (in-place)\nI20260402 07:29:42.721271 16109 net.cpp:122] Setting up relu1\nI20260402 07:29:42.721280 16109 net.cpp:129] Top shape: 100 32 16 16 (819200)\nI20260402 07:29:42.721292 16109 net.cpp:137] Memory required for data: 20890000\nI20260402 07:29:42.721298 16109 layer_factory.hpp:77] Creating layer conv2\nI20260402 07:29:42.721308 16109 net.cpp:84] Creating Layer conv2\nI20260402 07:29:42.721316 16109 net.cpp:406] conv2 <- pool1\nI20260402 07:29:42.721326 16109 net.cpp:380] conv2 -> conv2\nI20260402 07:29:42.721541 16109 net.cpp:122] Setting up conv2\nI20260402 07:29:42.721554 16109 net.cpp:129] Top shape: 100 32 16 16 (819200)\nI20260402 07:29:42.721563 16109 net.cpp:137] Memory required for data: 24166800\nI20260402 07:29:42.721573 16109 layer_factory.hpp:77] Creating layer relu2\nI20260402 07:29:42.721585 16109 net.cpp:84] Creating Layer relu2\nI20260402 07:29:42.721601 16109 net.cpp:406] relu2 <- conv2\nI20260402 07:29:42.721611 16109 net.cpp:367] relu2 -> conv2 (in-place)\nI20260402 07:29:42.721621 16109 net.cpp:122] Setting up relu2\nI20260402 07:29:42.721632 16109 net.cpp:129] Top shape: 100 32 16 16 (819200)\nI20260402 07:29:42.721642 16109 net.cpp:137] Memory required for data: 27443600\nI20260402 07:29:42.721653 16109 layer_factory.hpp:77] Creating layer pool2\nI20260402 07:29:42.721663 16109 net.cpp:84] Creating Layer pool2\nI20260402 07:29:42.721671 16109 net.cpp:406] pool2 <- conv2\nI20260402 07:29:42.721683 16109 net.cpp:380] pool2 -> pool2\nI20260402 07:29:42.721696 16109 net.cpp:122] Setting up pool2\nI20260402 07:29:42.721704 16109 net.cpp:129] Top shape: 100 32 8 8 (204800)\nI20260402 07:29:42.721714 16109 net.cpp:137] Memory required for data: 28262800\nI20260402 07:29:42.721724 16109 layer_factory.hpp:77] Creating layer conv3\nI20260402 07:29:42.721738 16109 net.cpp:84] Creating Layer conv3\nI20260402 07:29:42.721746 16109 net.cpp:406] conv3 <- pool2\nI20260402 07:29:42.721762 16109 net.cpp:380] conv3 -> conv3\nI20260402 07:29:42.722177 16109 net.cpp:122] Setting up conv3\nI20260402 07:29:42.722186 16109 net.cpp:129] Top shape: 100 64 8 8 (409600)\nI20260402 07:29:42.722194 16109 net.cpp:137] Memory required for data: 29901200\nI20260402 07:29:42.722206 16109 layer_factory.hpp:77] Creating layer relu3\nI20260402 07:29:42.722216 16109 net.cpp:84] Creating Layer relu3\nI20260402 07:29:42.722227 16109 net.cpp:406] relu3 <- conv3\nI20260402 07:29:42.722239 16109 net.cpp:367] relu3 -> conv3 (in-place)\nI20260402 07:29:42.722247 16109 net.cpp:122] Setting up relu3\nI20260402 07:29:42.722257 16109 net.cpp:129] Top shape: 100 64 8 8 (409600)\nI20260402 07:29:42.722280 16109 net.cpp:137] Memory required for data: 31539600\nI20260402 07:29:42.722290 16109 layer_factory.hpp:77] Creating layer pool3\nI20260402 07:29:42.722301 16109 net.cpp:84] Creating Layer pool3\nI20260402 07:29:42.722311 16109 net.cpp:406] pool3 <- conv3\nI20260402 07:29:42.722321 16109 net.cpp:380] pool3 -> pool3\nI20260402 07:29:42.722334 16109 net.cpp:122] Setting up pool3\nI20260402 07:29:42.722342 16109 net.cpp:129] Top shape: 100 64 4 4 (102400)\nI20260402 07:29:42.722360 16109 net.cpp:137] Memory required for data: 31949200\nI20260402 07:29:42.722368 16109 layer_factory.hpp:77] Creating layer ip1\nI20260402 07:29:42.722388 16109 net.cpp:84] Creating Layer ip1\nI20260402 07:29:42.722398 16109 net.cpp:406] ip1 <- pool3\nI20260402 07:29:42.722409 16109 net.cpp:380] ip1 -> ip1\nI20260402 07:29:42.722872 16109 net.cpp:122] Setting up ip1\nI20260402 07:29:42.722882 16109 net.cpp:129] Top shape: 100 64 (6400)\nI20260402 07:29:42.722892 16109 net.cpp:137] Memory required for data: 31974800\nI20260402 07:29:42.722901 16109 layer_factory.hpp:77] Creating layer ip2\nI20260402 07:29:42.722911 16109 net.cpp:84] Creating Layer ip2\nI20260402 07:29:42.722920 16109 net.cpp:406] ip2 <- ip1\nI20260402 07:29:42.722930 16109 net.cpp:380] ip2 -> ip2\nI20260402 07:29:42.722945 16109 net.cpp:122] Setting up ip2\nI20260402 07:29:42.722952 16109 net.cpp:129] Top shape: 100 10 (1000)\nI20260402 07:29:42.722960 16109 net.cpp:137] Memory required for data: 31978800\nI20260402 07:29:42.722970 16109 layer_factory.hpp:77] Creating layer loss\nI20260402 07:29:42.722982 16109 net.cpp:84] Creating Layer loss\nI20260402 07:29:42.722990 16109 net.cpp:406] loss <- ip2\nI20260402 07:29:42.722998 16109 net.cpp:406] loss <- label\nI20260402 07:29:42.723007 16109 net.cpp:380] lo
…
yer cifar\nI20260402 07:29:42.723623 16109 db_lmdb.cpp:35] Opened lmdb examples/cifar10/cifar10_test_lmdb\nI20260402 07:29:42.723636 16109 net.cpp:84] Creating Layer cifar\nI20260402 07:29:42.723650 16109 net.cpp:380] cifar -> data\nI20260402 07:29:42.723661 16109 net.cpp:380] cifar -> label\nI20260402 07:29:42.723671 16109 data_transformer.cpp:25] Loading mean file from: examples/cifar10/mean.binaryproto\nI20260402 07:29:42.723723 16109 data_layer.cpp:45] output data size: 100,3,32,32\nI20260402 07:29:42.723819 16109 net.cpp:122] Setting up cifar\nI20260402 07:29:42.723829 16109 net.cpp:129] Top shape: 100 3 32 32 (307200)\nI20260402 07:29:42.723842 16109 net.cpp:129] Top shape: 100 (100)\nI20260402 07:29:42.723850 16109 net.cpp:137] Memory required for data: 1229200\nI20260402 07:29:42.723860 16109 layer_factory.hpp:77] Creating layer label_cifar_1_split\nI20260402 07:29:42.723872 16109 net.cpp:84] Creating Layer label_cifar_1_split\nI20260402 07:29:42.723882 16109 net.cpp:406] label_cifar_1_split <- label\nI20260402 07:29:42.723904 16109 net.cpp:380] label_cifar_1_split -> label_cifar_1_split_0\nI20260402 07:29:42.723915 16109 net.cpp:380] label_cifar_1_split -> label_cifar_1_split_1\nI20260402 07:29:42.723927 16109 net.cpp:122] Setting up label_cifar_1_split\nI20260402 07:29:42.723935 16109 net.cpp:129] Top shape: 100 (100)\nI20260402 07:29:42.723954 16109 net.cpp:129] Top shape: 100 (100)\nI20260402 07:29:42.723963 16109 net.cpp:137] Memory required for data: 1230000\nI20260402 07:29:42.723973 16109 layer_factory.hpp:77] Creating layer conv1\nI20260402 07:29:42.723986 16109 net.cpp:84] Creating Layer conv1\nI20260402 07:29:42.724005 16109 net.cpp:406] conv1 <- data\nI20260402 07:29:42.724015 16109 net.cpp:380] conv1 -> conv1\nI20260402 07:29:42.724049 16109 net.cpp:122] Setting up conv1\nI20260402 07:29:42.724061 16109 net.cpp:129] Top shape: 100 32 32 32 (3276800)\nI20260402 07:29:42.724073 16109 net.cpp:137] Memory required for data: 14337200\nI20260402 07:29:42.724084 16109 layer_factory.hpp:77] Creating layer pool1\nI20260402 07:29:42.724097 16109 net.cpp:84] Creating Layer pool1\nI20260402 07:29:42.724105 16109 net.cpp:406] pool1 <- conv1\nI20260402 07:29:42.724118 16109 net.cpp:380] pool1 -> pool1\nI20260402 07:29:42.724130 16109 net.cpp:122] Setting up pool1\nI20260402 07:29:42.724138 16109 net.cpp:129] Top shape: 100 32 16 16 (819200)\nI20260402 07:29:42.724150 16109 net.cpp:137] Memory required for data: 17614000\nI20260402 07:29:42.724162 16109 layer_factory.hpp:77] Creating layer relu1\nI20260402 07:29:42.724174 16109 net.cpp:84] Creating Layer relu1\nI20260402 07:29:42.724184 16109 net.cpp:406] relu1 <- pool1\nI20260402 07:29:42.724196 16109 net.cpp:367] relu1 -> pool1 (in-place)\nI20260402 07:29:42.724207 16109 net.cpp:122] Setting up relu1\nI20260402 07:29:42.724220 16109 net.cpp:129] Top shape: 100 32 16 16 (819200)\nI20260402 07:29:42.724231 16109 net.cpp:137] Memory required for data: 20890800\nI20260402 07:29:42.724239 16109 layer_factory.hpp:77] Creating layer conv2\nI20260402 07:29:42.724254 16109 net.cpp:84] Creating Layer conv2\nI20260402 07:29:42.724262 16109 net.cpp:406] conv2 <- pool1\nI20260402 07:29:42.724272 16109 net.cpp:380] conv2 -> conv2\nI20260402 07:29:42.724500 16109 net.cpp:122] Setting up conv2\nI20260402 07:29:42.724510 16109 net.cpp:129] Top shape: 100 32 16 16 (819200)\nI20260402 07:29:42.724519 16109 net.cpp:137] Memory required for data: 24167600\nI20260402 07:29:42.724531 16109 layer_factory.hpp:77] Creating layer relu2\nI20260402 07:29:42.724542 16109 net.cpp:84] Creating Layer relu2\nI20260402 07:29:42.724553 16109 net.cpp:406] relu2 <- conv2\nI20260402 07:29:42.724565 16109 net.cpp:367] relu2 -> conv2 (in-place)\nI20260402 07:29:42.724586 16109 net.cpp:122] Setting up relu2\nI20260402 07:29:42.724601 16109 net.cpp:129] Top shape: 100 32 16 16 (819200)\nI20260402 07:29:42.724611 16109 net.cpp:137] Memory required for data: 27444400\nI20260402 07:29:42.724630 16109 layer_factory.hpp:77] Creating layer pool2\nI20260402 07:29:42.724645 16109 net.cpp:84] Creating Layer pool2\nI20260402 07:29:42.724653 16109 net.cpp:406] pool2 <- conv2\nI20260402 07:29:42.724663 16109 net.cpp:380] pool2 -> pool2\nI20260402 07:29:42.724673 16109 net.cpp:122] Setting up pool2\nI20260402 07:29:42.724686 16109 net.cpp:129] Top shape: 100 32 8 8 (204800)\nI20260402 07:29:42.724695 16109 net.cpp:137] Memory required for data: 28263600\nI20260402 07:29:42.724704 16109 layer_factory.hpp:77] Creating layer conv3\nI20260402 07:29:42.724713 16109 net.cpp:84] Creating Layer conv3\nI20260402 07:29:42.724723 16109 net.cpp:406] conv3 <- pool2\nI20260402 07:29:42.724740 16109 net.cpp:380] conv3 -> conv3\nI20260402 07:29:42.725148 16109 net.cpp:122] Setting up conv3\nI20260402 07:29:42.725158 16109 net.cpp:129] Top shape: 100 64 8 8 (409600)\nI20260402 07:29:42.725169 16109 net.cpp:137] Memory required for data: 29902000\nI20260402 07:29:42.725180 16109 layer_factory.hpp:77] Creating layer relu3\nI20260402 07:29:42.725189 16109 net.cpp:84] Creating Layer relu3\nI20260402 07:29:42.725198 16109 net.cpp:406] relu3 <- conv3\nI20260402 07:29:42.725209 16109 net.cpp:367] relu3 -> conv3 (in-place)\nI20260402 07:29:42.725220 16109 net.cpp:122] Setting up relu3\nI20260402 07:29:42.725231 16109 net.cpp:129] Top shape: 100 64 8 8 (409600)\nI20260402 07:29:42.725241 16109 net.cpp:137] Memory required for data: 31540400\nI20260402 07:29:42.725252 16109 layer_factory.hpp:77] Creating layer pool3\nI20260402 07:29:42.725262 16109 net.cpp:84] Creating Layer pool3\nI20260402 07:29:42.725272 16109 net.cpp:406] pool3 <- conv3\nI20260402 07:29:42.725286 16109 net.cpp:380] pool3 -> pool3\nI20260402 07:29:42.725296 16109 net.cpp:122] Setting up pool3\nI20260402 07:29:42.725304 16109 net.cpp:129] Top shape: 100 64 4 4 (102400)\nI20260402 07:29:42.725327 16109 net.cpp:137] Memory required for data: 31950000\nI20260402 07:29:42.725338 16109 layer_factory.hpp:77] Creating layer ip1\nI20260402 07:29:42.725355 16109 net.cpp:84] Creating Layer ip1\nI20260402 07:29:42.725363 16109 net.cpp:406] ip1 <- pool3\nI20260402 07:29:42.725376 16109 net.cpp:380] ip1 -> ip1\nI20260402 07:29:42.725811 16109 net.cpp:122] Setting up ip1\nI20260402 07:29:42.725821 16109 net.cpp:129] Top shape: 100 64 (6400)\nI20260402 07:29:42.725832 16109 net.cpp:137] Memory required for data: 31975600\nI20260402 07:29:42.725843 16109 layer_factory.hpp:77] Creating layer ip2\nI20260402 07:29:42.725853 16109 net.cpp:84] Creating Layer ip2\nI20260402 07:29:42.725860 16109 net.cpp:406] ip2 <- ip1\nI20260402 07:29:42.725870 16109 net.cpp:380] ip2 -> ip2\nI20260402 07:29:42.725889 16109 net.cpp:122] Setting up ip2\nI20260402 07:29:42.725900 16109 net.cpp:129] Top shape: 100 10 (1000)\nI20260402 07:29:42.725909 16109 net.cpp:137] Memory required for data: 31979600\nI20260402 07:29:42.725920 16109 layer_factory.hpp:77] Creating layer ip2_ip2_0_split\nI20260402 07:29:42.725942 16109 net.cpp:84] Creating Layer ip2_ip2_0_split\nI20260402 07:29:42.725952 16109 net.cpp:406] ip2_ip2_0_split <- ip2\nI20260402 07:29:42.725961 16109 net.cpp:380] ip2_ip2_0_split -> ip2_ip2_0_split_0\nI20260402 07:29:42.725975 16109 net.cpp:380] ip2_ip2_0_split -> ip2_ip2_0_split_1\nI20260402 07:29:42.725983 16109 net.cpp:122] Setting up ip2_ip2_0_split\nI20260402 07:29:42.725992 16109 net.cpp:129] Top shape: 100 10 (1000)\nI20260402 07:29:42.726001 16109 net.cpp:129] Top shape: 100 10 (1000)\nI20260402 07:29:42.726011 16109 net.cpp:137] Memory required for data: 31987600\nI20260402 07:29:42.726022 16109 layer_factory.hpp:77] Creating layer accuracy\nI20260402 07:29:42.726042 16109 net.cpp:84] Creating Layer accuracy\nI20260402 07:29:42.726052 16109 net.cpp:406] accuracy <- ip2_ip2_0_split_0\nI20260402 07:29:42.726061 16109 net.cpp:406] accuracy <- label_cifar_1_split_0\nI
…
