…
er cifar\nI20260401 09:33:11.793006 10070 db_lmdb.cpp:35] Opened lmdb examples/cifar10/cifar10_train_lmdb\nI20260401 09:33:11.793203 10070 net.cpp:84] Creating Layer cifar\nI20260401 09:33:11.793251 10070 net.cpp:380] cifar -> data\nI20260401 09:33:11.793313 10070 net.cpp:380] cifar -> label\nI20260401 09:33:11.793351 10070 data_transformer.cpp:25] Loading mean file from: examples/cifar10/mean.binaryproto\nI20260401 09:33:11.793582 10070 data_layer.cpp:45] output data size: 100,3,32,32\nI20260401 09:33:11.793972 10070 net.cpp:122] Setting up cifar\nI20260401 09:33:11.793990 10070 net.cpp:129] Top shape: 100 3 32 32 (307200)\nI20260401 09:33:11.794003 10070 net.cpp:129] Top shape: 100 (100)\nI20260401 09:33:11.794013 10070 net.cpp:137] Memory required for data: 1229200\nI20260401 09:33:11.794023 10070 layer_factory.hpp:77] Creating layer conv1\nI20260401 09:33:11.794050 10070 net.cpp:84] Creating Layer conv1\nI20260401 09:33:11.794061 10070 net.cpp:406] conv1 <- data\nI20260401 09:33:11.794073 10070 net.cpp:380] conv1 -> conv1\nI20260401 09:33:11.794180 10070 net.cpp:122] Setting up conv1\nI20260401 09:33:11.794204 10070 net.cpp:129] Top shape: 100 32 32 32 (3276800)\nI20260401 09:33:11.794220 10070 net.cpp:137] Memory required for data: 14336400\nI20260401 09:33:11.794251 10070 layer_factory.hpp:77] Creating layer pool1\nI20260401 09:33:11.794273 10070 net.cpp:84] Creating Layer pool1\nI20260401 09:33:11.794284 10070 net.cpp:406] pool1 <- conv1\nI20260401 09:33:11.794296 10070 net.cpp:380] pool1 -> pool1\nI20260401 09:33:11.794327 10070 net.cpp:122] Setting up pool1\nI20260401 09:33:11.794335 10070 net.cpp:129] Top shape: 100 32 16 16 (819200)\nI20260401 09:33:11.794343 10070 net.cpp:137] Memory required for data: 17613200\nI20260401 09:33:11.794351 10070 layer_factory.hpp:77] Creating layer relu1\nI20260401 09:33:11.794363 10070 net.cpp:84] Creating Layer relu1\nI20260401 09:33:11.794373 10070 net.cpp:406] relu1 <- pool1\nI20260401 09:33:11.794401 10070 net.cpp:367] relu1 -> pool1 (in-place)\nI20260401 09:33:11.794454 10070 net.cpp:122] Setting up relu1\nI20260401 09:33:11.794466 10070 net.cpp:129] Top shape: 100 32 16 16 (819200)\nI20260401 09:33:11.794474 10070 net.cpp:137] Memory required for data: 20890000\nI20260401 09:33:11.794482 10070 layer_factory.hpp:77] Creating layer conv2\nI20260401 09:33:11.794493 10070 net.cpp:84] Creating Layer conv2\nI20260401 09:33:11.794503 10070 net.cpp:406] conv2 <- pool1\nI20260401 09:33:11.794515 10070 net.cpp:380] conv2 -> conv2\nI20260401 09:33:11.794868 10070 net.cpp:122] Setting up conv2\nI20260401 09:33:11.794885 10070 net.cpp:129] Top shape: 100 32 16 16 (819200)\nI20260401 09:33:11.794896 10070 net.cpp:137] Memory required for data: 24166800\nI20260401 09:33:11.794909 10070 layer_factory.hpp:77] Creating layer relu2\nI20260401 09:33:11.794919 10070 net.cpp:84] Creating Layer relu2\nI20260401 09:33:11.794927 10070 net.cpp:406] relu2 <- conv2\nI20260401 09:33:11.794936 10070 net.cpp:367] relu2 -> conv2 (in-place)\nI20260401 09:33:11.794946 10070 net.cpp:122] Setting up relu2\nI20260401 09:33:11.794956 10070 net.cpp:129] Top shape: 100 32 16 16 (819200)\nI20260401 09:33:11.794965 10070 net.cpp:137] Memory required for data: 27443600\nI20260401 09:33:11.794973 10070 layer_factory.hpp:77] Creating layer pool2\nI20260401 09:33:11.794982 10070 net.cpp:84] Creating Layer pool2\nI20260401 09:33:11.794991 10070 net.cpp:406] pool2 <- conv2\nI20260401 09:33:11.795006 10070 net.cpp:380] pool2 -> pool2\nI20260401 09:33:11.795024 10070 net.cpp:122] Setting up pool2\nI20260401 09:33:11.795035 10070 net.cpp:129] Top shape: 100 32 8 8 (204800)\nI20260401 09:33:11.795045 10070 net.cpp:137] Memory required for data: 28262800\nI20260401 09:33:11.795053 10070 layer_factory.hpp:77] Creating layer conv3\nI20260401 09:33:11.795069 10070 net.cpp:84] Creating Layer conv3\nI20260401 09:33:11.795079 10070 net.cpp:406] conv3 <- pool2\nI20260401 09:33:11.795089 10070 net.cpp:380] conv3 -> conv3\nI20260401 09:33:11.795732 10070 net.cpp:122] Setting up conv3\nI20260401 09:33:11.795764 10070 net.cpp:129] Top shape: 100 64 8 8 (409600)\nI20260401 09:33:11.795779 10070 net.cpp:137] Memory required for data: 29901200\nI20260401 09:33:11.795794 10070 layer_factory.hpp:77] Creating layer relu3\nI20260401 09:33:11.795807 10070 net.cpp:84] Creating Layer relu3\nI20260401 09:33:11.795816 10070 net.cpp:406] relu3 <- conv3\nI20260401 09:33:11.795825 10070 net.cpp:367] relu3 -> conv3 (in-place)\nI20260401 09:33:11.795835 10070 net.cpp:122] Setting up relu3\nI20260401 09:33:11.795845 10070 net.cpp:129] Top shape: 100 64 8 8 (409600)\nI20260401 09:33:11.795889 10070 net.cpp:137] Memory required for data: 31539600\nI20260401 09:33:11.795902 10070 layer_factory.hpp:77] Creating layer pool3\nI20260401 09:33:11.795924 10070 net.cpp:84] Creating Layer pool3\nI20260401 09:33:11.795945 10070 net.cpp:406] pool3 <- conv3\nI20260401 09:33:11.795956 10070 net.cpp:380] pool3 -> pool3\nI20260401 09:33:11.795969 10070 net.cpp:122] Setting up pool3\nI20260401 09:33:11.795976 10070 net.cpp:129] Top shape: 100 64 4 4 (102400)\nI20260401 09:33:11.795985 10070 net.cpp:137] Memory required for data: 31949200\nI20260401 09:33:11.795993 10070 layer_factory.hpp:77] Creating layer ip1\nI20260401 09:33:11.796008 10070 net.cpp:84] Creating Layer ip1\nI20260401 09:33:11.796018 10070 net.cpp:406] ip1 <- pool3\nI20260401 09:33:11.796027 10070 net.cpp:380] ip1 -> ip1\nI20260401 09:33:11.796861 10070 net.cpp:122] Setting up ip1\nI20260401 09:33:11.796892 10070 net.cpp:129] Top shape: 100 64 (6400)\nI20260401 09:33:11.796902 10070 net.cpp:137] Memory required for data: 31974800\nI20260401 09:33:11.796914 10070 layer_factory.hpp:77] Creating layer ip2\nI20260401 09:33:11.796926 10070 net.cpp:84] Creating Layer ip2\nI20260401 09:33:11.796934 10070 net.cpp:406] ip2 <- ip1\nI20260401 09:33:11.796944 10070 net.cpp:380] ip2 -> ip2\nI20260401 09:33:11.796970 10070 net.cpp:122] Setting up ip2\nI20260401 09:33:11.796979 10070 net.cpp:129] Top shape: 100 10 (1000)\nI20260401 09:33:11.796988 10070 net.cpp:137] Memory required for data: 31978800\nI20260401 09:33:11.797000 10070 layer_factory.hpp:77] Creating layer loss\nI20260401 09:33:11.797022 10070 net.cpp:84] Creating Layer loss\nI20260401 09:33:11.797034 10070 net.cpp:406] loss <- ip2\nI20260401 09:33:11.797041 10070 net.cpp:406] loss <- label\nI20260401 09:33:11.797050 10070 net.cpp:380] lo
…
yer cifar\nI20260401 09:33:11.798172 10070 db_lmdb.cpp:35] Opened lmdb examples/cifar10/cifar10_test_lmdb\nI20260401 09:33:11.798236 10070 net.cpp:84] Creating Layer cifar\nI20260401 09:33:11.798251 10070 net.cpp:380] cifar -> data\nI20260401 09:33:11.798267 10070 net.cpp:380] cifar -> label\nI20260401 09:33:11.798286 10070 data_transformer.cpp:25] Loading mean file from: examples/cifar10/mean.binaryproto\nI20260401 09:33:11.798413 10070 data_layer.cpp:45] output data size: 100,3,32,32\nI20260401 09:33:11.798676 10070 net.cpp:122] Setting up cifar\nI20260401 09:33:11.798693 10070 net.cpp:129] Top shape: 100 3 32 32 (307200)\nI20260401 09:33:11.798704 10070 net.cpp:129] Top shape: 100 (100)\nI20260401 09:33:11.798714 10070 net.cpp:137] Memory required for data: 1229200\nI20260401 09:33:11.798723 10070 layer_factory.hpp:77] Creating layer label_cifar_1_split\nI20260401 09:33:11.798739 10070 net.cpp:84] Creating Layer label_cifar_1_split\nI20260401 09:33:11.798748 10070 net.cpp:406] label_cifar_1_split <- label\nI20260401 09:33:11.798763 10070 net.cpp:380] label_cifar_1_split -> label_cifar_1_split_0\nI20260401 09:33:11.798776 10070 net.cpp:380] label_cifar_1_split -> label_cifar_1_split_1\nI20260401 09:33:11.798790 10070 net.cpp:122] Setting up label_cifar_1_split\nI20260401 09:33:11.798799 10070 net.cpp:129] Top shape: 100 (100)\nI20260401 09:33:11.798807 10070 net.cpp:129] Top shape: 100 (100)\nI20260401 09:33:11.798815 10070 net.cpp:137] Memory required for data: 1230000\nI20260401 09:33:11.798822 10070 layer_factory.hpp:77] Creating layer conv1\nI20260401 09:33:11.798834 10070 net.cpp:84] Creating Layer conv1\nI20260401 09:33:11.798887 10070 net.cpp:406] conv1 <- data\nI20260401 09:33:11.798903 10070 net.cpp:380] conv1 -> conv1\nI20260401 09:33:11.798956 10070 net.cpp:122] Setting up conv1\nI20260401 09:33:11.798969 10070 net.cpp:129] Top shape: 100 32 32 32 (3276800)\nI20260401 09:33:11.799000 10070 net.cpp:137] Memory required for data: 14337200\nI20260401 09:33:11.799014 10070 layer_factory.hpp:77] Creating layer pool1\nI20260401 09:33:11.799031 10070 net.cpp:84] Creating Layer pool1\nI20260401 09:33:11.799042 10070 net.cpp:406] pool1 <- conv1\nI20260401 09:33:11.799052 10070 net.cpp:380] pool1 -> pool1\nI20260401 09:33:11.799062 10070 net.cpp:122] Setting up pool1\nI20260401 09:33:11.799072 10070 net.cpp:129] Top shape: 100 32 16 16 (819200)\nI20260401 09:33:11.799079 10070 net.cpp:137] Memory required for data: 17614000\nI20260401 09:33:11.799094 10070 layer_factory.hpp:77] Creating layer relu1\nI20260401 09:33:11.799108 10070 net.cpp:84] Creating Layer relu1\nI20260401 09:33:11.799116 10070 net.cpp:406] relu1 <- pool1\nI20260401 09:33:11.799125 10070 net.cpp:367] relu1 -> pool1 (in-place)\nI20260401 09:33:11.799137 10070 net.cpp:122] Setting up relu1\nI20260401 09:33:11.799152 10070 net.cpp:129] Top shape: 100 32 16 16 (819200)\nI20260401 09:33:11.799161 10070 net.cpp:137] Memory required for data: 20890800\nI20260401 09:33:11.799170 10070 layer_factory.hpp:77] Creating layer conv2\nI20260401 09:33:11.799186 10070 net.cpp:84] Creating Layer conv2\nI20260401 09:33:11.799196 10070 net.cpp:406] conv2 <- pool1\nI20260401 09:33:11.799206 10070 net.cpp:380] conv2 -> conv2\nI20260401 09:33:11.799553 10070 net.cpp:122] Setting up conv2\nI20260401 09:33:11.799583 10070 net.cpp:129] Top shape: 100 32 16 16 (819200)\nI20260401 09:33:11.799600 10070 net.cpp:137] Memory required for data: 24167600\nI20260401 09:33:11.799618 10070 layer_factory.hpp:77] Creating layer relu2\nI20260401 09:33:11.799631 10070 net.cpp:84] Creating Layer relu2\nI20260401 09:33:11.799640 10070 net.cpp:406] relu2 <- conv2\nI20260401 09:33:11.799656 10070 net.cpp:367] relu2 -> conv2 (in-place)\nI20260401 09:33:11.799666 10070 net.cpp:122] Setting up relu2\nI20260401 09:33:11.799674 10070 net.cpp:129] Top shape: 100 32 16 16 (819200)\nI20260401 09:33:11.799685 10070 net.cpp:137] Memory required for data: 27444400\nI20260401 09:33:11.799692 10070 layer_factory.hpp:77] Creating layer pool2\nI20260401 09:33:11.799702 10070 net.cpp:84] Creating Layer pool2\nI20260401 09:33:11.799711 10070 net.cpp:406] pool2 <- conv2\nI20260401 09:33:11.799721 10070 net.cpp:380] pool2 -> pool2\nI20260401 09:33:11.799731 10070 net.cpp:122] Setting up pool2\nI20260401 09:33:11.799738 10070 net.cpp:129] Top shape: 100 32 8 8 (204800)\nI20260401 09:33:11.799746 10070 net.cpp:137] Memory required for data: 28263600\nI20260401 09:33:11.799754 10070 layer_factory.hpp:77] Creating layer conv3\nI20260401 09:33:11.799770 10070 net.cpp:84] Creating Layer conv3\nI20260401 09:33:11.799779 10070 net.cpp:406] conv3 <- pool2\nI20260401 09:33:11.799788 10070 net.cpp:380] conv3 -> conv3\nI20260401 09:33:11.800427 10070 net.cpp:122] Setting up conv3\nI20260401 09:33:11.800458 10070 net.cpp:129] Top shape: 100 64 8 8 (409600)\nI20260401 09:33:11.800475 10070 net.cpp:137] Memory required for data: 29902000\nI20260401 09:33:11.800486 10070 layer_factory.hpp:77] Creating layer relu3\nI20260401 09:33:11.800498 10070 net.cpp:84] Creating Layer relu3\nI20260401 09:33:11.800505 10070 net.cpp:406] relu3 <- conv3\nI20260401 09:33:11.800514 10070 net.cpp:367] relu3 -> conv3 (in-place)\nI20260401 09:33:11.800526 10070 net.cpp:122] Setting up relu3\nI20260401 09:33:11.800534 10070 net.cpp:129] Top shape: 100 64 8 8 (409600)\nI20260401 09:33:11.800558 10070 net.cpp:137] Memory required for data: 31540400\nI20260401 09:33:11.800570 10070 layer_factory.hpp:77] Creating layer pool3\nI20260401 09:33:11.800588 10070 net.cpp:84] Creating Layer pool3\nI20260401 09:33:11.800601 10070 net.cpp:406] pool3 <- conv3\nI20260401 09:33:11.800626 10070 net.cpp:380] pool3 -> pool3\nI20260401 09:33:11.800642 10070 net.cpp:122] Setting up pool3\nI20260401 09:33:11.800652 10070 net.cpp:129] Top shape: 100 64 4 4 (102400)\nI20260401 09:33:11.800689 10070 net.cpp:137] Memory required for data: 31950000\nI20260401 09:33:11.800701 10070 layer_factory.hpp:77] Creating layer ip1\nI20260401 09:33:11.800716 10070 net.cpp:84] Creating Layer ip1\nI20260401 09:33:11.800726 10070 net.cpp:406] ip1 <- pool3\nI20260401 09:33:11.800738 10070 net.cpp:380] ip1 -> ip1\nI20260401 09:33:11.801525 10070 net.cpp:122] Setting up ip1\nI20260401 09:33:11.801558 10070 net.cpp:129] Top shape: 100 64 (6400)\nI20260401 09:33:11.801573 10070 net.cpp:137] Memory required for data: 31975600\nI20260401 09:33:11.801585 10070 layer_factory.hpp:77] Creating layer ip2\nI20260401 09:33:11.801595 10070 net.cpp:84] Creating Layer ip2\nI20260401 09:33:11.801610 10070 net.cpp:406] ip2 <- ip1\nI20260401 09:33:11.801625 10070 net.cpp:380] ip2 -> ip2\nI20260401 09:33:11.801653 10070 net.cpp:122] Setting up ip2\nI20260401 09:33:11.801662 10070 net.cpp:129] Top shape: 100 10 (1000)\nI20260401 09:33:11.801672 10070 net.cpp:137] Memory required for data: 31979600\nI20260401 09:33:11.801683 10070 layer_factory.hpp:77] Creating layer ip2_ip2_0_split\nI20260401 09:33:11.801697 10070 net.cpp:84] Creating Layer ip2_ip2_0_split\nI20260401 09:33:11.801707 10070 net.cpp:406] ip2_ip2_0_split <- ip2\nI20260401 09:33:11.801716 10070 net.cpp:380] ip2_ip2_0_split -> ip2_ip2_0_split_0\nI20260401 09:33:11.801734 10070 net.cpp:380] ip2_ip2_0_split -> ip2_ip2_0_split_1\nI20260401 09:33:11.801753 10070 net.cpp:122] Setting up ip2_ip2_0_split\nI20260401 09:33:11.801774 10070 net.cpp:129] Top shape: 100 10 (1000)\nI20260401 09:33:11.801790 10070 net.cpp:129] Top shape: 100 10 (1000)\nI20260401 09:33:11.801800 10070 net.cpp:137] Memory required for data: 31987600\nI20260401 09:33:11.801807 10070 layer_factory.hpp:77] Creating layer accuracy\nI20260401 09:33:11.801820 10070 net.cpp:84] Creating Layer accuracy\nI20260401 09:33:11.801831 10070 net.cpp:406] accuracy <- ip2_ip2_0_split_0\nI20260401 09:33:11.801839 10070 net.cpp:406] accuracy <- label_cifar_1_split_0\nI
…
