…
er cifar\nI20260401 07:38:35.948741  9385 db_lmdb.cpp:35] Opened lmdb examples/cifar10/cifar10_train_lmdb\nI20260401 07:38:35.948846  9385 net.cpp:84] Creating Layer cifar\nI20260401 07:38:35.949052  9385 net.cpp:380] cifar -> data\nI20260401 07:38:35.949334  9385 net.cpp:380] cifar -> label\nI20260401 07:38:35.949414  9385 data_transformer.cpp:25] Loading mean file from: examples/cifar10/mean.binaryproto\nI20260401 07:38:35.950157  9385 data_layer.cpp:45] output data size: 100,3,32,32\nI20260401 07:38:35.951988  9385 net.cpp:122] Setting up cifar\nI20260401 07:38:35.952172  9385 net.cpp:129] Top shape: 100 3 32 32 (307200)\nI20260401 07:38:35.952289  9385 net.cpp:129] Top shape: 100 (100)\nI20260401 07:38:35.952422  9385 net.cpp:137] Memory required for data: 1229200\nI20260401 07:38:35.952826  9385 layer_factory.hpp:77] Creating layer conv1\nI20260401 07:38:35.952917  9385 net.cpp:84] Creating Layer conv1\nI20260401 07:38:35.953199  9385 net.cpp:406] conv1 <- data\nI20260401 07:38:35.953356  9385 net.cpp:380] conv1 -> conv1\nI20260401 07:38:35.953505  9385 net.cpp:122] Setting up conv1\nI20260401 07:38:35.953656  9385 net.cpp:129] Top shape: 100 32 32 32 (3276800)\nI20260401 07:38:35.953794  9385 net.cpp:137] Memory required for data: 14336400\nI20260401 07:38:35.953979  9385 layer_factory.hpp:77] Creating layer pool1\nI20260401 07:38:35.954149  9385 net.cpp:84] Creating Layer pool1\nI20260401 07:38:35.954439  9385 net.cpp:406] pool1 <- conv1\nI20260401 07:38:35.954552  9385 net.cpp:380] pool1 -> pool1\nI20260401 07:38:35.954808  9385 net.cpp:122] Setting up pool1\nI20260401 07:38:35.955051  9385 net.cpp:129] Top shape: 100 32 16 16 (819200)\nI20260401 07:38:35.955145  9385 net.cpp:137] Memory required for data: 17613200\nI20260401 07:38:35.955293  9385 layer_factory.hpp:77] Creating layer relu1\nI20260401 07:38:35.955425  9385 net.cpp:84] Creating Layer relu1\nI20260401 07:38:35.955610  9385 net.cpp:406] relu1 <- pool1\nI20260401 07:38:35.955858  9385 net.cpp:367] relu1 -> pool1 (in-place)\nI20260401 07:38:35.956043  9385 net.cpp:122] Setting up relu1\nI20260401 07:38:35.956208  9385 net.cpp:129] Top shape: 100 32 16 16 (819200)\nI20260401 07:38:35.956281  9385 net.cpp:137] Memory required for data: 20890000\nI20260401 07:38:35.956380  9385 layer_factory.hpp:77] Creating layer conv2\nI20260401 07:38:35.956514  9385 net.cpp:84] Creating Layer conv2\nI20260401 07:38:35.956597  9385 net.cpp:406] conv2 <- pool1\nI20260401 07:38:35.956775  9385 net.cpp:380] conv2 -> conv2\nI20260401 07:38:35.957365  9385 net.cpp:122] Setting up conv2\nI20260401 07:38:35.957429  9385 net.cpp:129] Top shape: 100 32 16 16 (819200)\nI20260401 07:38:35.957595  9385 net.cpp:137] Memory required for data: 24166800\nI20260401 07:38:35.957686  9385 layer_factory.hpp:77] Creating layer relu2\nI20260401 07:38:35.957768  9385 net.cpp:84] Creating Layer relu2\nI20260401 07:38:35.958030  9385 net.cpp:406] relu2 <- conv2\nI20260401 07:38:35.958210  9385 net.cpp:367] relu2 -> conv2 (in-place)\nI20260401 07:38:35.958370  9385 net.cpp:122] Setting up relu2\nI20260401 07:38:35.958416  9385 net.cpp:129] Top shape: 100 32 16 16 (819200)\nI20260401 07:38:35.958487  9385 net.cpp:137] Memory required for data: 27443600\nI20260401 07:38:35.958544  9385 layer_factory.hpp:77] Creating layer pool2\nI20260401 07:38:35.958608  9385 net.cpp:84] Creating Layer pool2\nI20260401 07:38:35.958766  9385 net.cpp:406] pool2 <- conv2\nI20260401 07:38:35.958807  9385 net.cpp:380] pool2 -> pool2\nI20260401 07:38:35.958961  9385 net.cpp:122] Setting up pool2\nI20260401 07:38:35.959031  9385 net.cpp:129] Top shape: 100 32 8 8 (204800)\nI20260401 07:38:35.959128  9385 net.cpp:137] Memory required for data: 28262800\nI20260401 07:38:35.959148  9385 layer_factory.hpp:77] Creating layer conv3\nI20260401 07:38:35.959233  9385 net.cpp:84] Creating Layer conv3\nI20260401 07:38:35.959386  9385 net.cpp:406] conv3 <- pool2\nI20260401 07:38:35.959584  9385 net.cpp:380] conv3 -> conv3\nI20260401 07:38:35.960614  9385 net.cpp:122] Setting up conv3\nI20260401 07:38:35.960688  9385 net.cpp:129] Top shape: 100 64 8 8 (409600)\nI20260401 07:38:35.960752  9385 net.cpp:137] Memory required for data: 29901200\nI20260401 07:38:35.960925  9385 layer_factory.hpp:77] Creating layer relu3\nI20260401 07:38:35.961199  9385 net.cpp:84] Creating Layer relu3\nI20260401 07:38:35.961369  9385 net.cpp:406] relu3 <- conv3\nI20260401 07:38:35.961418  9385 net.cpp:367] relu3 -> conv3 (in-place)\nI20260401 07:38:35.961476  9385 net.cpp:122] Setting up relu3\nI20260401 07:38:35.961537  9385 net.cpp:129] Top shape: 100 64 8 8 (409600)\nI20260401 07:38:35.961794  9385 net.cpp:137] Memory required for data: 31539600\nI20260401 07:38:35.961998  9385 layer_factory.hpp:77] Creating layer pool3\nI20260401 07:38:35.962062  9385 net.cpp:84] Creating Layer pool3\nI20260401 07:38:35.962149  9385 net.cpp:406] pool3 <- conv3\nI20260401 07:38:35.962317  9385 net.cpp:380] pool3 -> pool3\nI20260401 07:38:35.962419  9385 net.cpp:122] Setting up pool3\nI20260401 07:38:35.962464  9385 net.cpp:129] Top shape: 100 64 4 4 (102400)\nI20260401 07:38:35.962517  9385 net.cpp:137] Memory required for data: 31949200\nI20260401 07:38:35.962558  9385 layer_factory.hpp:77] Creating layer ip1\nI20260401 07:38:35.962664  9385 net.cpp:84] Creating Layer ip1\nI20260401 07:38:35.962724  9385 net.cpp:406] ip1 <- pool3\nI20260401 07:38:35.962796  9385 net.cpp:380] ip1 -> ip1\nI20260401 07:38:35.963562  9385 net.cpp:122] Setting up ip1\nI20260401 07:38:35.963629  9385 net.cpp:129] Top shape: 100 64 (6400)\nI20260401 07:38:35.963848  9385 net.cpp:137] Memory required for data: 31974800\nI20260401 07:38:35.963886  9385 layer_factory.hpp:77] Creating layer ip2\nI20260401 07:38:35.963979  9385 net.cpp:84] Creating Layer ip2\nI20260401 07:38:35.964129  9385 net.cpp:406] ip2 <- ip1\nI20260401 07:38:35.964325  9385 net.cpp:380] ip2 -> ip2\nI20260401 07:38:35.964457  9385 net.cpp:122] Setting up ip2\nI20260401 07:38:35.964511  9385 net.cpp:129] Top shape: 100 10 (1000)\nI20260401 07:38:35.964551  9385 net.cpp:137] Memory required for data: 31978800\nI20260401 07:38:35.964588  9385 layer_factory.hpp:77] Creating layer loss\nI20260401 07:38:35.964716  9385 net.cpp:84] Creating Layer loss\nI20260401 07:38:35.964838  9385 net.cpp:406] loss <- ip2\nI20260401 07:38:35.964895  9385 net.cpp:406] loss <- label\nI20260401 07:38:35.964954  9385 net.cpp:380] lo
…
yer cifar\nI20260401 07:38:35.969380  9385 db_lmdb.cpp:35] Opened lmdb examples/cifar10/cifar10_test_lmdb\nI20260401 07:38:35.969457  9385 net.cpp:84] Creating Layer cifar\nI20260401 07:38:35.969496  9385 net.cpp:380] cifar -> data\nI20260401 07:38:35.969555  9385 net.cpp:380] cifar -> label\nI20260401 07:38:35.969617  9385 data_transformer.cpp:25] Loading mean file from: examples/cifar10/mean.binaryproto\nI20260401 07:38:35.970103  9385 data_layer.cpp:45] output data size: 100,3,32,32\nI20260401 07:38:35.971194  9385 net.cpp:122] Setting up cifar\nI20260401 07:38:35.971267  9385 net.cpp:129] Top shape: 100 3 32 32 (307200)\nI20260401 07:38:35.971422  9385 net.cpp:129] Top shape: 100 (100)\nI20260401 07:38:35.971742  9385 net.cpp:137] Memory required for data: 1229200\nI20260401 07:38:35.971787  9385 layer_factory.hpp:77] Creating layer label_cifar_1_split\nI20260401 07:38:35.971843  9385 net.cpp:84] Creating Layer label_cifar_1_split\nI20260401 07:38:35.971907  9385 net.cpp:406] label_cifar_1_split <- label\nI20260401 07:38:35.971947  9385 net.cpp:380] label_cifar_1_split -> label_cifar_1_split_0\nI20260401 07:38:35.971984  9385 net.cpp:380] label_cifar_1_split -> label_cifar_1_split_1\nI20260401 07:38:35.972113  9385 net.cpp:122] Setting up label_cifar_1_split\nI20260401 07:38:35.972178  9385 net.cpp:129] Top shape: 100 (100)\nI20260401 07:38:35.972247  9385 net.cpp:129] Top shape: 100 (100)\nI20260401 07:38:35.972311  9385 net.cpp:137] Memory required for data: 1230000\nI20260401 07:38:35.972342  9385 layer_factory.hpp:77] Creating layer conv1\nI20260401 07:38:35.972390  9385 net.cpp:84] Creating Layer conv1\nI20260401 07:38:35.972481  9385 net.cpp:406] conv1 <- data\nI20260401 07:38:35.972551  9385 net.cpp:380] conv1 -> conv1\nI20260401 07:38:35.972702  9385 net.cpp:122] Setting up conv1\nI20260401 07:38:35.972738  9385 net.cpp:129] Top shape: 100 32 32 32 (3276800)\nI20260401 07:38:35.972807  9385 net.cpp:137] Memory required for data: 14337200\nI20260401 07:38:35.972880  9385 layer_factory.hpp:77] Creating layer pool1\nI20260401 07:38:35.973013  9385 net.cpp:84] Creating Layer pool1\nI20260401 07:38:35.973085  9385 net.cpp:406] pool1 <- conv1\nI20260401 07:38:35.973192  9385 net.cpp:380] pool1 -> pool1\nI20260401 07:38:35.973378  9385 net.cpp:122] Setting up pool1\nI20260401 07:38:35.973419  9385 net.cpp:129] Top shape: 100 32 16 16 (819200)\nI20260401 07:38:35.973636  9385 net.cpp:137] Memory required for data: 17614000\nI20260401 07:38:35.973673  9385 layer_factory.hpp:77] Creating layer relu1\nI20260401 07:38:35.973763  9385 net.cpp:84] Creating Layer relu1\nI20260401 07:38:35.973971  9385 net.cpp:406] relu1 <- pool1\nI20260401 07:38:35.974099  9385 net.cpp:367] relu1 -> pool1 (in-place)\nI20260401 07:38:35.974195  9385 net.cpp:122] Setting up relu1\nI20260401 07:38:35.974395  9385 net.cpp:129] Top shape: 100 32 16 16 (819200)\nI20260401 07:38:35.974509  9385 net.cpp:137] Memory required for data: 20890800\nI20260401 07:38:35.974572  9385 layer_factory.hpp:77] Creating layer conv2\nI20260401 07:38:35.974640  9385 net.cpp:84] Creating Layer conv2\nI20260401 07:38:35.974746  9385 net.cpp:406] conv2 <- pool1\nI20260401 07:38:35.974872  9385 net.cpp:380] conv2 -> conv2\nI20260401 07:38:35.975498  9385 net.cpp:122] Setting up conv2\nI20260401 07:38:35.975548  9385 net.cpp:129] Top shape: 100 32 16 16 (819200)\nI20260401 07:38:35.975718  9385 net.cpp:137] Memory required for data: 24167600\nI20260401 07:38:35.975787  9385 layer_factory.hpp:77] Creating layer relu2\nI20260401 07:38:35.976012  9385 net.cpp:84] Creating Layer relu2\nI20260401 07:38:35.976121  9385 net.cpp:406] relu2 <- conv2\nI20260401 07:38:35.976342  9385 net.cpp:367] relu2 -> conv2 (in-place)\nI20260401 07:38:35.976436  9385 net.cpp:122] Setting up relu2\nI20260401 07:38:35.976588  9385 net.cpp:129] Top shape: 100 32 16 16 (819200)\nI20260401 07:38:35.976653  9385 net.cpp:137] Memory required for data: 27444400\nI20260401 07:38:35.976874  9385 layer_factory.hpp:77] Creating layer pool2\nI20260401 07:38:35.977124  9385 net.cpp:84] Creating Layer pool2\nI20260401 07:38:35.977351  9385 net.cpp:406] pool2 <- conv2\nI20260401 07:38:35.977540  9385 net.cpp:380] pool2 -> pool2\nI20260401 07:38:35.977655  9385 net.cpp:122] Setting up pool2\nI20260401 07:38:35.977716  9385 net.cpp:129] Top shape: 100 32 8 8 (204800)\nI20260401 07:38:35.977756  9385 net.cpp:137] Memory required for data: 28263600\nI20260401 07:38:35.977869  9385 layer_factory.hpp:77] Creating layer conv3\nI20260401 07:38:35.977921  9385 net.cpp:84] Creating Layer conv3\nI20260401 07:38:35.978073  9385 net.cpp:406] conv3 <- pool2\nI20260401 07:38:35.978147  9385 net.cpp:380] conv3 -> conv3\nI20260401 07:38:35.978894  9385 net.cpp:122] Setting up conv3\nI20260401 07:38:35.979007  9385 net.cpp:129] Top shape: 100 64 8 8 (409600)\nI20260401 07:38:35.979221  9385 net.cpp:137] Memory required for data: 29902000\nI20260401 07:38:35.979436  9385 layer_factory.hpp:77] Creating layer relu3\nI20260401 07:38:35.979637  9385 net.cpp:84] Creating Layer relu3\nI20260401 07:38:35.979741  9385 net.cpp:406] relu3 <- conv3\nI20260401 07:38:35.979895  9385 net.cpp:367] relu3 -> conv3 (in-place)\nI20260401 07:38:35.980185  9385 net.cpp:122] Setting up relu3\nI20260401 07:38:35.980252  9385 net.cpp:129] Top shape: 100 64 8 8 (409600)\nI20260401 07:38:35.980315  9385 net.cpp:137] Memory required for data: 31540400\nI20260401 07:38:35.980409  9385 layer_factory.hpp:77] Creating layer pool3\nI20260401 07:38:35.980512  9385 net.cpp:84] Creating Layer pool3\nI20260401 07:38:35.980581  9385 net.cpp:406] pool3 <- conv3\nI20260401 07:38:35.980649  9385 net.cpp:380] pool3 -> pool3\nI20260401 07:38:35.980710  9385 net.cpp:122] Setting up pool3\nI20260401 07:38:35.980897  9385 net.cpp:129] Top shape: 100 64 4 4 (102400)\nI20260401 07:38:35.981326  9385 net.cpp:137] Memory required for data: 31950000\nI20260401 07:38:35.981544  9385 layer_factory.hpp:77] Creating layer ip1\nI20260401 07:38:35.981624  9385 net.cpp:84] Creating Layer ip1\nI20260401 07:38:35.981914  9385 net.cpp:406] ip1 <- pool3\nI20260401 07:38:35.981993  9385 net.cpp:380] ip1 -> ip1\nI20260401 07:38:35.982843  9385 net.cpp:122] Setting up ip1\nI20260401 07:38:35.982905  9385 net.cpp:129] Top shape: 100 64 (6400)\nI20260401 07:38:35.982990  9385 net.cpp:137] Memory required for data: 31975600\nI20260401 07:38:35.983117  9385 layer_factory.hpp:77] Creating layer ip2\nI20260401 07:38:35.983243  9385 net.cpp:84] Creating Layer ip2\nI20260401 07:38:35.983291  9385 net.cpp:406] ip2 <- ip1\nI20260401 07:38:35.983348  9385 net.cpp:380] ip2 -> ip2\nI20260401 07:38:35.983534  9385 net.cpp:122] Setting up ip2\nI20260401 07:38:35.983785  9385 net.cpp:129] Top shape: 100 10 (1000)\nI20260401 07:38:35.984316  9385 net.cpp:137] Memory required for data: 31979600\nI20260401 07:38:35.984508  9385 layer_factory.hpp:77] Creating layer ip2_ip2_0_split\nI20260401 07:38:35.984800  9385 net.cpp:84] Creating Layer ip2_ip2_0_split\nI20260401 07:38:35.985185  9385 net.cpp:406] ip2_ip2_0_split <- ip2\nI20260401 07:38:35.985328  9385 net.cpp:380] ip2_ip2_0_split -> ip2_ip2_0_split_0\nI20260401 07:38:35.985492  9385 net.cpp:380] ip2_ip2_0_split -> ip2_ip2_0_split_1\nI20260401 07:38:35.985668  9385 net.cpp:122] Setting up ip2_ip2_0_split\nI20260401 07:38:35.985924  9385 net.cpp:129] Top shape: 100 10 (1000)\nI20260401 07:38:35.985998  9385 net.cpp:129] Top shape: 100 10 (1000)\nI20260401 07:38:35.986359  9385 net.cpp:137] Memory required for data: 31987600\nI20260401 07:38:35.986528  9385 layer_factory.hpp:77] Creating layer accuracy\nI20260401 07:38:35.986837  9385 net.cpp:84] Creating Layer accuracy\nI20260401 07:38:35.987087  9385 net.cpp:406] accuracy <- ip2_ip2_0_split_0\nI20260401 07:38:35.987197  9385 net.cpp:406] accuracy <- label_cifar_1_split_0\nI
…
